rnn/l2race-model_09092020_oval_easy_4.pt (torch, 536659 bytes, 66 tensors)

encoder.rnn.weight_ih_l0 f4 [128, 32]
000000 17 90 f7 bc bb af 6e bd c4 83 9d bd 8c d3 49 3d
       -0.030220075 -0.05827306 -0.07691148 0.049274012
000010 dd 0c d7 bb 37 52 82 bd aa 97 a5 bd 7f 1a 32 3c
       -0.0065628127 -0.063633375 -0.08085568 0.010870575
000020 ed ed af bc a1 81 80 3c 3f 15 46 3d fd d0 e6 bc
       -0.021475757 0.015686812 0.048360106 -0.028175825
000030 33 10 a1 3b e3 d7 17 bd f8 14 90 bd a4 36 cb 3b
       0.004915261 -0.03707112 -0.070352495 0.006201582
000040 58 d3 0c 3c 82 8d 22 3d b8 92 b3 bd 53 43 d1 3c
       0.00859531 0.039685734 -0.08768219 0.025544798
000050 55 a6 4e bd ee cc 93 bd e4 f7 1d 3d 81 36 f6 3d
       -0.050451595 -0.072168216 0.038566485 0.120221145
000060 9a 92 b1 bc 7c bf b7 3c f0 bd 14 3d 59 5c ef bc
       -0.02167635 0.022430174 0.03631395 -0.02921884
000070 ac 5d 7c bd 80 63 83 3c d9 de f4 bb 88 5d 82 3d
       -0.06161277 0.016038656 -0.0074728546 0.06365496
000080 33 1b bf 3d 8b f6 20 bd ce 20 08 3e d7 c1 3c bd
       0.0933136 -0.03929762 0.13293764 -0.046083298
000090 f7 21 20 3d 63 1b 24 bd b4 47 1a 3d d2 49 a2 bb
       0.03909489 -0.04006518 0.037666038 -0.0049526477
0000a0 5c a5 e1 3d 69 94 34 bd e6 a3 1b 3e 93 70 a2 3c
       0.11017868 -0.044086847 0.15199241 0.01982907
0000b0 4c c3 84 3d 2e ba 00 3b 43 2a 0a 3e 0b 9a d2 bd
       0.064825624 0.0019642222 0.13492684 -0.102832876
0000c0 7a d2 dc 3d d5 4b 9a bd 38 21 52 3d f3 82 f7 bd
       0.10782333 -0.07533995 0.05130121 -0.120855235
0000d0 8e 80 c7 3c d3 a0 4a 3d 4e de 30 3d 64 0f e0 bd
       0.024353292 0.04946978 0.043180756 -0.109404355
0000e0 80 b8 11 3d 81 5e ed bc 8a eb e5 3c a3 8c 7e 3d
       0.035576344 -0.028975727 0.028066415 0.06214584
0000f0 a2 40 49 bd 95 8a 13 3e cd 50 17 bd 2c 8a cf 3c
       -0.049133904 0.14408334 -0.036942292 0.02533444
000100 e6 bd 8c bd 28 c2 06 bd 6f df 71 3d 99 b4 92 3d
       -0.06872158 -0.032900006 0.059050974 0.071633525
000110 27 d9 6f bc 64 7f 5c 3c c8 04 45 3d bc af 83 3d
       -0.0146391755 0.013458107 0.048100263 0.06430003
000120 a5 69 b9 3d 2d 95 39 bc 1b a6 da 3d be 38 61 bd
       0.09053353 -0.01132707 0.10676213 -0.054985754
000130 88 6c d9 bc 35 ad d9 bc 98 3c ac 3d ee fe 37 3d
       -0.02654101 -0.02657185 0.08409995 0.044920854
000140 78 5c b4 3c 37 80 92 3b 0e 0a 68 3d e8 2c 7a 3c
       0.022016749 0.004470851 0.056650214 0.015269496
000150 1b b6 73 3c 07 7d b9 3d 44 94 c1 bc c8 e4 85 bd
       0.01487496 0.0905705 -0.023630269 -0.06537777
000160 6a 47 88 b9 54 bc af 3c 21 76 e4 bc 82 04 d0 bc
       -0.0002599315 0.021452107 -0.02788836 -0.025392774
000170 53 08 b0 bc 81 fa 1c 3e 09 f9 b0 3d 4e 3e 95 3c
       -0.021488344 0.15329935 0.0864125 0.018218186
000180 36 92 34 3c be 67 f2 3c 08 5a 93 bd ca 13 82 bc
       0.0110211875 0.029590484 -0.071949065 -0.015878577
000190 dc ce 5f bd eb 16 9c 3c b8 0d 1f 3d ff 95 08 3d
       -0.054640636 0.019053897 0.038831443 0.033346172
0001a0 df d9 ad bc 2f 17 82 3d a4 4d 8c bd fb 24 ff bc
       -0.021222053 0.06352078 -0.06850746 -0.031145563
0001b0 90 63 b7 3c 77 27 04 bd 6d d3 83 bd 81 ea 49 bc
       0.022386342 -0.0322642 -0.06436811 -0.0123239765
0001c0 fa 5e 3c bd fc 74 05 3c 99 78 f1 bc 82 28 b0 3b
       -0.045989014 0.008145567 -0.02947645 0.0053759227
0001d0 34 24 55 3d cd 16 81 3d 18 4d 80 3d 1f 18 e1 bd
       0.05203648 0.06303177 0.062647045 -0.10990929
0001e0 86 e9 c4 bd f4 f7 30 3c 52 bc 84 3d 6e 62 02 3d
       -0.096148536 0.010801304 0.06481232 0.03183215
0001f0 00 30 95 bd 0d 1d 8f bd 2c 18 24 bd 2e f0 72 3c
       -0.07284546 -0.06987963 -0.040062115 0.014827771
000200 42 76 0d 3b 65 86 a0 3d 44 d6 50 bd f9 7a 0d bc
       0.002158538 0.07838134 -0.05098559 -0.008635276
000210 01 51 33 bd e9 6f 08 3d 40 23 ae bc 79 3b 43 3d
       -0.043778423 0.03330985 -0.021257043 0.04766414
000220 a9 d0 63 bd 51 78 c4 3d 3f 84 af 3c 0b 93 e2 3d
       -0.055618916 0.09593261 0.021425365 0.110632025
000230 f1 d6 63 3d f8 c6 e3 3d d3 e4 0d 3c 70 ac 9e 3c
       0.055624906 0.11121935 0.008660513 0.019369334
000240 54 51 ad 3d 75 e9 c4 3d 4a b4 47 3d d0 2d 01 bd
       0.08462778 0.09614841 0.04875592 -0.03153783
000250 6d 20 9d 3d 43 f4 c3 bc b6 c1 6c bd ef f6 ac bc
       0.076722 -0.023920184 -0.057801925 -0.02111384
000260 72 98 97 3d 99 87 12 3c b4 19 bd 3c 1e 22 da bb
       0.074021235 0.008943462 0.023083545 -0.006656899
000270 53 12 0d 3d a7 b0 f6 3d 1f 58 52 bd d2 cd 34 3c
       0.034441303 0.120454125 -0.05135357 0.0110353995
000280 eb 94 bf bb 19 7c 0e 3d 25 d5 9f 3d 2e e1 93 3d
       -0.00584661 0.034786317 0.07804326 0.07220684
000290 9b 7a 2e bd a3 ad a3 3d ee ac 11 bd a4 a4 01 3e
       -0.042597394 0.07992103 -0.03556531 0.12660462
0002a0 39 a3 28 3b 8a 89 b8 3d 9b 00 2d bd d2 63 7e bc
       0.0025732054 0.090106085 -0.042236906 -0.015526729
0002b0 cc 9f a3 3d 5f 11 59 3d ab 00 7f 3b 2b cd c6 bb
       0.07989463 0.052995082 0.003891031 -0.0060669384
0002c0 c8 a3 c3 bc 51 da 2c 3c c5 09 40 bc 79 1a 45 bc
       -0.023881808 0.010550098 -0.011721079 -0.012030237
0002d0 c8 6d 2c 3d d8 27 1f 3d f3 2d 4b 3c aa a7 88 3d
       0.042096883 0.038856357 0.012401092 0.066726044
0002e0 9b d7 66 3d 42 61 3e 3d db b9 6c bc 70 85 88 3c
       0.05635796 0.04647947 -0.014448608 0.01666519
0002f0 91 c3 b5 bb f7 4f da 3c e1 d2 90 bd 46 6a 1f bd
       -0.005546995 0.026649458 -0.07071472 -0.03891971
000300 c4 1c 72 3c b8 86 ed bc b1 af 4f bd a7 a8 23 bd
       0.014777366 -0.028994903 -0.05070466 -0.03995576
000310 81 66 ae bc fb 16 7e bd d9 54 01 3d 8e a0 23 3d
       -0.021289112 -0.062033635 0.031575058 0.03994804
000320 ff d3 e7 3c 47 27 04 3d 4c 37 43 3c 9f e0 29 bc
       0.02829933 0.03226402 0.011915039 -0.010368495
000330 db 32 09 3c 95 6c b7 bd a4 e3 ca bd d1 d9 c9 bd
       0.008373941 -0.08956257 -0.099067 -0.09855998
000340 ff e4 06 3d 72 5c 57 bc fe ec 72 bd f6 b3 b7 bd
       0.03293323 -0.013144599 -0.059308045 -0.08969872
000350 c2 8b 87 bd a0 bd 85 3c 2c 92 07 3d d1 23 ad bd
       -0.066184536 0.016325772 0.033098385 -0.08454097
000360 b0 0d 3b 3d ec ee 81 3d b7 13 a0 bc bb 02 91 3d
       0.04566735 0.06344399 -0.01954065 0.07080599
000370 9b 79 aa 3d 8f 47 36 bd 1f 38 c9 bb 6d a1 2e bd
       0.08323976 -0.044501837 -0.0061407234 -0.042634416
000380 62 e0 f7 3d 5e 6b 84 bd 22 5f f3 3d 1f c0 6b bd
       0.121033445 -0.06465791 0.118833795 -0.057556268
000390 f9 71 d2 3d 5b 97 c4 bd 7d 38 f0 3d 1b a0 9f 3c
       0.10275645 -0.09599181 0.11729524 0.019485524
0003a0 3f 81 81 3d 71 3b a2 bd 03 af e3 3d 72 a3 86 3c
       0.0632348 -0.07921494 0.11117365 0.016435359
0003b0 81 04 05 3e 05 12 b0 bc f3 19 21 3e 65 1f 6b bd
       0.1299 -0.021492967 0.15732555 -0.057402987
0003c0 0d 74 91 3d c0 ce 46 bc 7e 32 40 3d 18 b3 dd bc
       0.07102213 -0.012134254 0.046923153 -0.027062938
0003d0 e4 4d 1e 3c c4 1d 4c 3d 28 1e 38 3e 56 e3 db bd
       0.009662125 0.049833074 0.17980254 -0.1073672
0003e0 ff ed 0a bb a8 99 0c bd d1 1b ce 3d 85 be 97 3c
       -0.0021198986 -0.034326226 0.10063899 0.018523464
0003f0 05 98 11 3c 39 ac 29 bd d2 63 b0 3d 70 0f 95 3d
       0.008886342 -0.04142401 0.08612789 0.07278335

encoder.rnn.weight_hh_l0 f4 [128, 32]
000000 72 24 bc 3c 97 1d ab bd df 60 34 bd c5 90 ce 3b
       0.022966597 -0.08355253 -0.044037696 0.006303879
000010 c7 ee 94 bd a6 4b 17 bc 50 26 6d 3d a2 cf 30 3e
       -0.07272106 -0.009234345 0.057897866 0.17266706
000020 e0 ad 8b 3d f3 85 65 3c 04 28 6a bc 73 4f 54 3d
       0.068202734 0.014008987 -0.014291767 0.05183358
000030 d7 d9 2d 3d 8e ba cb bc 13 8b 8c bb 62 60 bf 3b
       0.042444076 -0.02486923 -0.00428904 0.005840347
000040 3b a6 84 bd 75 88 6f 3d c4 54 01 3c 15 93 a5 3d
       -0.064770184 0.058479745 0.007893745 0.08084694
000050 f6 ec 23 3d 76 d2 91 3d 52 7f 5c bc 54 83 91 bd
       0.040020905 0.0712022 -0.01345809 -0.07105127
000060 d2 3d 35 bd 7c b4 12 3b 8a 74 0b bd 90 4d a8 bd
       -0.04424841 0.002238541 -0.034046687 -0.08217919
000070 c2 a6 e5 bc 77 35 37 3b 5c a1 f1 ba 04 86 72 3d
       -0.028033618 0.0027955452 -0.001843493 0.05920984
000080 d7 08 d7 3d df 8a 0d be 9e 53 12 3e 24 71 0e be
       0.10499733 -0.13822506 0.1428971 -0.13910347
000090 92 b1 12 3d be 9c a6 3d 1e 1a 80 bd 29 8c e6 3d
       0.035813875 0.08135365 -0.062549815 0.11257202
0000a0 8d 65 93 bd c8 47 b9 3b 75 e2 1d 3e e2 74 97 3d
       -0.07197104 0.005654309 0.15418418 0.073953405
0000b0 61 0a b3 3c ac 26 5f bd 34 c7 3d bd 67 12 68 3d
       0.021855535 -0.05448024 -0.046332553 0.056658175
0000c0 07 1d af 3d a4 03 f8 bc c0 18 af 3c 27 22 80 bd
       0.085504584 -0.030275173 0.021374106 -0.06256514
0000d0 f7 78 c8 bd 49 1e 9c 3c fb b8 98 bc e5 96 46 3d
       -0.09788697 0.01905741 -0.018642893 0.048483748
0000e0 51 fb b1 3c d1 0f a7 bc ec 85 e8 3c 57 23 45 3c
       0.021726282 -0.020393284 0.028384171 0.012032351
0000f0 48 17 8b bd d2 c0 90 bd bb ad 88 bd fc 49 81 bc
       -0.0679155 -0.070680276 -0.066737615 -0.015782349
000100 d1 fd 02 3e 01 ff 2e 3d 7c 08 01 bd 9b a3 86 bd
       0.12792136 0.04272366 -0.031502232 -0.06574174
000110 3a 2a d1 3c a8 bd 8e bd 62 7c 93 bd eb f3 98 bd
       0.02553283 -0.06969768 -0.072014585 -0.07468399
000120 47 2b 1f 3d 95 3a af bc 7c 63 81 3b c5 44 9c bd
       0.038859632 -0.021390239 0.003948627 -0.07630304
000130 bc f1 29 3d a3 0c e1 bd f1 98 55 bc fe 01 ed bc
       0.0414903 -0.109887384 -0.013036952 -0.028931614
000140 84 58 77 bc e9 5b cf bd c7 8b e2 bd b1 99 f4 bc
       -0.015096787 -0.10124952 -0.11061817 -0.029858442
000150 d0 ef 9f bb 8f 82 79 bd cb a0 b6 bc ad 58 09 bc
       -0.004880883 -0.060915526 -0.022293469 -0.008382958
000160 fa 3d c0 bd 07 87 b0 3b 89 5b 19 be 4f 18 14 bd
       -0.09386821 0.0053871903 -0.14976324 -0.036155995
000170 e7 1d e4 bd 4c a6 3a bd a7 c6 c2 bc 5b b6 df 3c
       -0.11138516 -0.04556875 -0.023776365 0.027308634
000180 5e 18 68 3d be 8e 3f 3d bc 62 09 bc fa dd a6 3c
       0.056663863 0.04676699 -0.0083853565 0.020369519
000190 04 9e b9 3c 7c 3b 9f bd 32 43 9e 3c 86 1e 21 bd
       0.022658356 -0.077750176 0.01931915 -0.03933575
0001a0 8f e6 b2 bd e0 84 37 bb fe 14 25 3d 6b 18 1f 3c
       -0.08735382 -0.0028002784 0.040303223 0.009710412
0001b0 77 e8 e4 3b ee c6 80 3d 83 48 6c bd 9a 68 55 3d
       0.00698572 0.06287943 -0.05768634 0.05210171
0001c0 23 41 11 3d a9 c1 31 bd 22 3f 04 bc da 09 8f bd
       0.03546251 -0.04339758 -0.008071693 -0.06984301
0001d0 76 1d 29 3d 81 be 80 3a f9 20 c2 bc df df 46 bd
       0.04128786 0.00098224 -0.023697363 -0.048553344
0001e0 25 7c 7a bd 1b cb ea 3b f4 e9 05 3c c0 d6 37 3c
       -0.06115355 0.0071653253 0.008173455 0.011220634
0001f0 21 d1 d5 bc 67 dd 4e 3d 83 36 d4 3a 12 f2 2e 3b
       -0.026100697 0.050504114 0.0016190562 0.0026694578
000200 c3 2b 70 3d 48 b3 09 bd 30 f3 28 3d 5a e0 48 3d
       0.058635484 -0.03361824 0.041247547 0.049042083
000210 43 df a7 3d 45 55 11 bd 3f 04 56 bd 55 51 06 bd
       0.08196881 -0.03548171 -0.052250143 -0.032792408
000220 d5 56 b8 ba 31 5e 4f 3d 99 4b 92 bd 52 bd 0c bd
       -0.0014063964 0.050626937 -0.07143325 -0.034360237
000230 39 21 cc 3c cf d8 3c 3d 5e fd 01 bd f0 32 aa bd
       0.024918186 0.046105202 -0.03173577 -0.08310497
000240 38 5c b7 3b d1 9c bb bd f2 3e 19 3d 5b 03 5f bd
       0.00559571 -0.0916077 0.037413545 -0.05444656
000250 bc 9b 67 3c 9f a1 11 3d 45 a6 93 bd a7 ec e3 bc
       0.014136251 0.035554525 -0.07209448 -0.027822806
000260 97 f9 a2 3d 35 55 8f 3d ed bd 59 bb 45 45 2f 3d
       0.07957762 0.06998674 -0.0033224777 0.04279067
000270 ea 5a 5a bd 2a c0 9e bd f0 df 3f bd 49 97 db 3c
       -0.05330936 -0.07751496 -0.046844423 0.026805537
000280 fc 70 99 3d 7a 54 b0 bb 06 cc 90 bb 0c eb e9 3d
       0.07492253 -0.005381164 -0.0044188527 0.11421785
000290 92 2a df 3b 9a 2f 13 bd 2c f0 7b bd 81 e6 4e 3d
       0.0068104947 -0.03593407 -0.061508343 0.050512794
0002a0 8c 7b 2d 3d a3 68 98 bd df c5 cb bd 87 37 e4 bc
       0.04235415 -0.07441833 -0.0994985 -0.027858509
0002b0 05 40 55 3d 8b b8 a0 bc 9f 43 20 bd c0 76 85 3d
       0.052063007 -0.019619247 -0.03912699 0.065167904
0002c0 2b bb 8b 3d 58 d5 be bd 3f b6 b7 bd 89 b9 cc 3c
       0.06822809 -0.09318036 -0.089703076 0.024990814
0002d0 16 fe d3 3c ba 15 8d 3b fa fe 97 3d 6f ca 22 3d
       0.025877994 0.0043055685 0.0742168 0.039743837
0002e0 7a 32 3e 3b 85 4e bf 3a 8d d6 f4 bd e1 48 2a bd
       0.0029021786 0.0014595544 -0.11954985 -0.04157341
0002f0 e9 e6 5b 3d 97 eb 61 bd ab be b9 bd 87 73 19 3e
       0.05368701 -0.055156317 -0.0906957 0.14985476
000300 2a fb 6c 3d 07 c5 c8 bc 0c 64 38 bd 5f a0 ce bc
       0.057856716 -0.024508012 -0.045017287 -0.025222955
000310 3b 1e 3d bb 94 3a 54 3d 2e 02 2e bd 11 d5 38 bc
       -0.002885713 0.051813677 -0.042482547 -0.011281268
000320 3e 75 c0 bd 3d e0 37 3d 83 88 9c 3d d3 0f b7 3d
       -0.09397362 0.044891585 0.07643225 0.08938565
000330 4d 46 5d 3d 6f de 76 3d b2 0e 18 bd 49 a0 08 bd
       0.054022122 0.060270723 -0.03712339 -0.033355985
000340 8c e2 82 3d 18 5d 39 3d 12 e6 0f bd 2b 1f 2c 3d
       0.06390867 0.045254797 -0.03513152 0.04202191
000350 2b f9 b0 bc b6 a4 04 bc ab 25 40 bd 9f 94 4d 3d
       -0.021603188 -0.008095911 -0.046910923 0.050190564
000360 ae 4c 83 3c b2 85 62 3d ed ff 54 3d 1b f1 1a 3d
       0.016027775 0.055303283 0.052001882 0.037827592
000370 53 7e cb 3b 04 45 dc 3d 81 70 0f 3d 07 f4 66 3d
       0.0062101274 0.10755351 0.0350194 0.056385066
000380 8d 94 04 3e b5 79 21 3c d0 c3 ea 3d 42 3a e1 bb
       0.12947293 0.009855677 0.114631295 -0.0068734
000390 37 a7 7f 3d 94 42 3a 3c 32 fe da bc a9 f4 95 3d
       0.062415328 0.0113684125 -0.026732538 0.07322056
0003a0 0b 34 0d be b2 b2 5c 3d 2a 31 24 3d 7d 9c aa 3c
       -0.13789384 0.053881355 0.04008595 0.020826573
0003b0 83 99 83 3d 09 0d 1e bd 2c b8 82 bc 57 9b 5d 3d
       0.064257644 -0.03858665 -0.01595696 0.05410322
0003c0 d3 1a c9 3d 24 29 f6 bc c3 fe 2d bb 38 f5 18 bc
       0.098195694 -0.030048914 -0.0026549555 -0.009335808
0003d0 f5 d6 4e bd ef 40 87 3c 98 66 d6 3d ea d8 8d bc
       -0.050497968 0.016510455 0.10468787 -0.017315347
0003e0 c9 f7 22 be aa 58 55 3d bb e9 eb 3c 3d 8a 9e bc
       -0.15914835 0.05208651 0.028797975 -0.019353027
0003f0 a0 83 c2 bc 13 14 f4 bd 3d cf 9c bd a2 98 ea 3b
       -0.023744404 -0.11917891 -0.07656715 0.0071593085

encoder.rnn.bias_ih_l0 f4 [128]
000000 8d 72 0f 3b 96 ae 95 bc d5 66 43 3c 05 5a 6f 3c
       0.0021888346 -0.018271726 0.011926373 0.014608865
000010 66 0d c0 bc fb 4d df 3c 7d f8 cc 3b 98 bf 91 3d
       -0.023443889 0.027258864 0.006255208 0.07116622
000020 38 34 dc 3c 0c 2c 63 3c a7 be 76 3c 58 f6 8a 3d
       0.026880369 0.013865482 0.0150601035 0.067852676
000030 ec fe 9a 3d 02 63 93 3c a3 30 60 3d 7b 90 c8 3d
       0.07568154 0.017991547 0.054733884 0.097931825
000040 de 95 b4 3d 8a 74 5f 3d 96 1f 95 3d e8 63 8d 3d
       0.088176474 0.0545545 0.07281415 0.06903821
000050 2e a3 73 3d 39 38 1d 3d 29 24 e4 bc c4 18 a6 3d
       0.059481792 0.038383696 -0.027849274 0.081101924
000060 8b 48 5b 3d 9e 5d 29 bd f2 07 08 bd dc 53 53 3b
       0.05353598 -0.041349046 -0.033210702 0.003224603
000070 a4 87 51 3d c3 dd b1 3d 92 69 06 3d 9e d3 06 bd
       0.051154748 0.08684876 0.032815523 -0.032916658
000080 01 9e c1 3d f6 cf c2 3d a5 60 60 3d 23 1a af bc
       0.09453965 0.09512322 0.054779667 -0.021374768
000090 f9 c9 8d 3d 38 9d 59 bb 08 14 c4 3d 5c 65 ca 3d
       0.06923289 -0.0033205282 0.09574133 0.09882614
0000a0 21 ef df bc a1 06 10 3d 47 7d 6a bd c5 c5 db ba
       -0.027335705 0.03516257 -0.05724838 -0.0016767314
0000b0 90 44 9d 3d db 59 97 ba f8 2d 18 bd 7f 82 70 bc
       0.07679093 -0.0011547165 -0.037153214 -0.01467955
0000c0 59 3e 6a 3b 42 35 e5 bc 55 30 90 3d 52 db 55 3c
       0.0035742729 -0.027979497 0.070404686 0.013052778
0000d0 d9 9e 81 bd af 84 04 3d 93 0e a2 3d 12 ba b0 3c
       -0.06329126 0.0323531 0.07912936 0.0215731
0000e0 4c f2 59 3c 33 4c a5 3c 05 28 8a 3d d9 e4 98 3d
       0.013302397 0.020177936 0.06745914 0.07465524
0000f0 f4 4f 74 3d e8 c5 17 3e 5e e9 aa bb f0 b8 4e bd
       0.05964656 0.14821589 -0.005215808 -0.05046934
000100 38 21 6a bc e3 1d 4b bb 1e c5 3c bb 1a 5b 97 3d
       -0.0142901465 -0.0030993156 -0.0028804014 0.07390423
000110 26 ef f3 bb 22 4c 3d 3d 0a c2 80 3c 85 0e 99 bc
       -0.00744428 0.046215184 0.015717525 -0.018683681
000120 32 d6 f0 bd 50 5b 2f bd a6 1c 47 3d d1 39 2e bb
       -0.117596045 -0.04281169 0.048611306 -0.0026584754
000130 d0 5c 2f bd 08 22 a0 bb d2 82 8f 3d ac 7c b5 3d
       -0.042813122 -0.0048868693 0.07007374 0.0886167
000140 0e 7f bd 3d 9b 81 72 bd b5 33 43 bb e7 40 84 bc
       0.092527494 -0.059205633 -0.0029785458 -0.01614423
000150 c9 73 96 3c 44 b1 58 bd be 1a 7c 3d 91 7f df bb
       0.018365758 -0.05290343 0.06154894 -0.006820627
000160 84 6d ec bd 62 db 77 bd b7 fc 81 3d 19 3a ea 3c
       -0.11544326 -0.060511954 0.0634703 0.028592156
000170 b4 c1 00 bd 3a 77 4c 3d 36 02 18 bd 78 ad 36 3d
       -0.03143473 0.04991839 -0.037111484 0.044599026
000180 ba c8 f9 3c ab 70 90 3d 65 48 1a 3d 4d a6 59 3d
       0.030491222 0.0705274 0.037666697 0.053137112
000190 ff 76 71 3d c5 63 5b 3d 6d 13 f2 3d 77 75 66 3d
       0.058951374 0.053561945 0.118201114 0.056264367
0001a0 ff 39 54 bc 94 53 98 bd 9c 51 ce 3d a3 c4 69 bc
       -0.0129532805 -0.07437816 0.100741595 -0.014268073
0001b0 1e e5 b3 3c 8d a2 27 3d ce a4 8c b9 d9 4d bd 3c
       0.021959838 0.040926505 -0.0002682567 0.02310841
0001c0 a2 fe 55 3d f5 9e 8b bc 22 5a 77 bd d7 c1 4f bd
       0.05224479 -0.01704357 -0.06038869 -0.05072197
0001d0 e9 db f2 3c 38 de 77 bc 7d 67 45 bc 6d d3 83 bd
       0.029645877 -0.015128665 -0.012048599 -0.06436811
0001e0 db 4c 79 3d cb 47 33 bd 58 8a 7d 3d f6 5f 16 3d
       0.06086431 -0.04376964 0.061899513 0.03671261
0001f0 34 07 94 bc 5e f9 c9 3d 35 5e c3 3d 5e f6 37 3b
       -0.018069841 0.09862016 0.09539453 0.002807043

encoder.rnn.bias_hh_l0 f4 [128]
000000 b1 ca 76 bd 02 4e 0e 3d 5e 53 5b bd 59 16 0a 3d
       -0.060251895 0.034742363 -0.053546302 0.03371272
000010 08 e9 3b bd 18 af e5 3d 29 a8 c4 bc e3 16 0f 3e
       -0.045876533 0.11215037 -0.024005966 0.13973574
000020 7a 41 48 3d e7 2f 24 3d bb 3c a7 bd 27 ae f1 bc
       0.04889057 0.040084746 -0.0816588 -0.029501988
000030 24 19 51 3d f6 0d 90 bd e9 77 88 bd d6 c2 1b 3d
       0.051049367 -0.07033913 -0.06663496 0.038027607
000040 02 29 fe 3c 5c ab 71 bc 22 8a 33 bd 8a 4f 95 3c
       0.031025413 -0.014750328 -0.043832906 0.018226404
000050 c5 49 4a bd f4 48 cc 3d 64 58 87 3d a0 be 29 3b
       -0.04938676 0.09974852 0.06608656 0.0025900975
000060 5c eb 91 3d 5c 6d 25 3d 5b 16 f7 3d d9 86 37 ba
       0.07124969 0.040387496 0.12064811 -0.000700099
000070 e4 dd 06 3d dc dc bf 3b ea b7 b7 bc 88 91 a3 3c
       0.032926455 0.005855186 -0.022426564 0.019966856
000080 3a 9c cd 3d 0e a5 eb 3d 1c 06 d3 3b d4 69 1b bd
       0.100395635 0.11506091 0.0064399373 -0.037942722
000090 9d 84 15 3d e9 8b 9d 3d 1a 88 cb 3d b9 76 10 3e
       0.036503423 0.07692701 0.09938069 0.14107789
0000a0 4b f2 ac bc ff 31 4a 3d 22 41 1f bd 23 16 ba 3d
       -0.021111628 0.049364086 -0.038880475 0.090862535
0000b0 b9 98 41 bd b9 12 2c bd 4d 4b 48 bd 70 2b 9c 3d
       -0.04726479 -0.042010043 -0.048899937 0.076254725
0000c0 11 80 09 bd bd fe 5e 3d 6d 9f 54 bd 1c b4 9b bc
       -0.0335694 0.054442156 -0.051909853 -0.019006781
0000d0 fb 76 08 3c f5 50 28 3c e5 ce 77 bc aa 2f 5e bc
       0.008329148 0.010273208 -0.015125011 -0.013561169
0000e0 c3 18 5f 3b d4 cf b7 3a 8a 98 3b 3d 0d d5 65 3c
       0.0034041859 0.001402373 0.04579977 0.014027846
0000f0 e0 fe 97 3d 66 16 ae 3d 28 4f 2d 3c 06 fe 5d 3d
       0.074216604 0.08500366 0.010577954 0.054197334
000100 2e 41 64 3b cb ec 73 3d 26 88 91 3d e5 6e cb 3a
       0.003482889 0.059551995 0.071060464 0.001552072
000110 fb cf bc 3c b7 2f 51 3c e2 c5 7f 3d 21 fc 9e 3c
       0.023048392 0.012767724 0.062444575 0.019407334
000120 86 57 7b bd 50 1b 71 bd 6e ab c5 bc a4 53 dc 3d
       -0.061362766 -0.058863938 -0.024129596 0.10758141
000130 a9 22 76 3d e9 ba 5a bd 3a ee 0b bd 4e c7 c0 bb
       0.06009165 -0.053400908 -0.034162737 -0.005883134
000140 5c ee e9 bc fe ef a1 3c 36 10 65 bd db 7b 28 3d
       -0.028556041 0.019767758 -0.055923663 0.041133743
000150 a6 b7 87 3c 98 ed 86 3a d7 b6 d8 3d 7f 24 89 3d
       0.016567063 0.0010294197 0.10581749 0.06696414
000160 21 de 11 be 20 46 e1 3c fe 56 7a 3d b0 41 a4 bd
       -0.14244892 0.027499259 0.06111812 -0.080203414
000170 d3 43 a3 3c 59 41 bf 3c 1f 78 94 bc 3c 11 4a 3c
       0.019929802 0.02334659 -0.018123684 0.012333211
000180 86 2d 77 3d c2 18 98 bb 3b c4 59 bd 02 1f c4 3d
       0.06034615 -0.0046416232 -0.053165656 0.09576227
000190 83 57 b5 bc eb d5 aa 3d f8 fa d2 bc 7f d5 e9 3d
       -0.022136455 0.08341583 -0.025754437 0.11417674
0001a0 78 99 1a bd 1e b0 4e bd 11 77 bd 3d 15 7f 88 3d
       -0.037744015 -0.050460927 0.09251226 0.06664864
0001b0 fa 67 17 3d ea e3 07 3d 52 1d b5 bc 25 a2 9c 3d
       0.036964394 0.03317634 -0.022108708 0.07648114
0001c0 8f 42 5f 3d 42 cd 93 bd ac 88 8d 3d 11 ec b4 3d
       0.054506835 -0.07216884 0.06910834 0.088340886
0001d0 da e8 a4 3d 68 ce 3c 3d e4 2a 01 3c 38 fa 1b bd
       0.080522254 0.04609528 0.007883761 -0.038080424
0001e0 6c 81 a1 3d 1f 72 f1 3b 02 ae 95 bc 99 ea d6 3d
       0.078860134 0.0073683406 -0.01827145 0.10493965
0001f0 2f e3 84 bd e2 0d 81 bc 0a a6 c6 3d 36 7c 5d 3b
       -0.06488644 -0.01575369 0.09699638 0.003379596

encoder.rnn.weight_ih_l1 f4 [128, 32]
000000 1a b6 c9 bc 8d 4c 17 bd 61 4a 04 bc 1c 81 05 3d
       -0.024622966 -0.03693824 -0.008074374 0.03259383
000010 38 5e 8b 3d 97 ee c2 bd 81 6c 81 bd 1d 1a 88 bd
       0.0680508 -0.09518164 -0.063195236 -0.06645606
000020 be 59 98 3d 8a db 27 bd a8 97 87 bd 07 11 05 bd
       0.07438992 -0.040980853 -0.06620723 -0.03248694
000030 d9 6e 4f bd c8 a8 cc bd 9b ea 82 bd 08 8b 25 3d
       -0.050642822 -0.0999313 -0.06392404 0.040415794
000040 71 75 c6 3d da 92 1a bd b7 c1 84 bd 25 4c e4 bc
       0.09690369 -0.037737705 -0.06482261 -0.02786834
000050 ec dc 26 3c c8 09 0a bd 82 c3 9b 3c 74 e0 6e bc
       0.010184508 -0.033700734 0.019014124 -0.014579881
000060 04 e7 0a bd 47 aa b3 3d ea a2 b5 bd f1 04 58 3d
       -0.03391172 0.08772712 -0.08868964 0.052739087
000070 3b 76 a0 bd 3a aa a1 bd c3 62 6a 3d cf 83 23 bc
       -0.07835051 -0.07893796 0.057223093 -0.009980156
000080 26 a5 a4 3c b3 cc a0 bc de 3b 56 3c ea 27 6f bd
       0.02009828 -0.019628858 0.013075797 -0.058387674
000090 8d 8f 4e bd 94 26 91 bd 61 9f 60 bd 0c ea d5 3d
       -0.05042987 -0.07087436 -0.054839496 0.104450315
0000a0 b2 3f ae 3d 87 1d 07 3c 15 7f c1 bd f1 ba 99 bd
       0.08508243 0.008246786 -0.09448067 -0.07506359
0000b0 9a f2 a2 3d b2 67 61 bd ad c1 2e 3d 0e f9 0a 3d
       0.07956429 -0.055030532 0.042665172 0.033928923
0000c0 f8 62 31 3d 31 cc 39 bd da 57 3c 3c aa e6 9a 3d
       0.043307275 -0.045360748 0.011495555 0.07563527
0000d0 46 4e 97 3d 9d ea 2e bc 9c 33 e5 bc 77 8b 2c bd
       0.07387976 -0.010676053 -0.02797871 -0.04212519
0000e0 9d 6f 79 3d 94 2a a0 3d f3 85 8c bd 26 16 40 bb
       0.06089746 0.07820621 -0.06861486 -0.0029310076
0000f0 cd ff 02 bc b6 5b 9f bd 8e be 77 bd 9e a1 f4 3c
       -0.007995558 -0.07781164 -0.06048446 0.029862221
000100 71 49 91 3d 5c ba 10 bd e9 3a 0d bd 3d 0c 9f 3d
       0.07094086 -0.035333976 -0.03448001 0.07766006
000110 3f a2 0d bd 0c b7 3a 3c 76 33 12 3c d3 14 01 bd
       -0.034578558 0.011396181 0.008923402 -0.031514
000120 b6 22 1f bd ef 59 8d bd 7b 87 21 3d a8 a0 a4 bd
       -0.038851462 -0.06901919 0.039435845 -0.08038455
000130 4c 77 ce 3c a0 61 6a bc 6e 88 74 bd 56 5f 28 bd
       0.02520337 -0.014305502 -0.059700422 -0.041106544
000140 13 28 cd 3d a8 8f 31 bd d4 e9 79 bc a0 96 8f bd
       0.10017409 -0.043349892 -0.015253503 -0.07011151
000150 d0 88 7f 3d af 93 63 bd 37 2b 58 bd d1 2f 3c 3d
       0.062386334 -0.055560764 -0.052775588 0.04594404
000160 33 71 8a bd 1a 83 a4 3d 14 3d 4a bc e8 1b bb bd
       -0.06759872 0.08032818 -0.012343664 -0.09136182
000170 44 a8 b1 3c 59 09 02 bd ba 96 bf bd 41 50 76 bc
       0.02168668 -0.031747196 -0.09354921 -0.015033782
000180 ee b3 a5 3d 51 aa 75 bd a9 02 e3 3c 39 e7 50 bd
       0.080909595 -0.05997688 0.02771123 -0.05100176
000190 25 d2 9a bd 61 1a d9 bb 2c 36 1e 3c 61 93 b2 3d
       -0.07559613 -0.006625459 0.00965647 0.087195165
0001a0 7a 80 1f 3d e4 e7 8f bd 77 9a 60 3d 64 fb 02 3b
       0.038940884 -0.070266515 0.05483481 0.0019986266
0001b0 47 56 da bc 80 34 97 bd 91 56 27 bd 44 b4 87 3d
       -0.026652468 -0.073830605 -0.04085404 0.0662618
0001c0 59 40 80 3d 82 a1 84 3d ac 92 36 bd e6 dd 65 bd
       0.06262273 0.06476118 -0.04457347 -0.056119822
0001d0 9a b1 4d bd 3c 4a b9 3c 3f f0 86 3d 59 48 64 3d
       -0.050218202 0.022618406 0.06588792 0.05573306
0001e0 85 9e ed bc c4 e1 3c bd 93 36 87 3d e3 fb 65 3d
       -0.029006252 -0.046113744 0.06602206 0.05614842
0001f0 d9 d2 19 bd 8e 39 94 bd 89 c8 9a 3c 39 3b 72 3d
       -0.037554596 -0.0723754 0.01889445 0.05913851
000200 00 e8 dc 3a 9f 27 b5 bd ad d2 22 bc b3 b4 5f bd
       0.0016853809 -0.08845448 -0.009937924 -0.054615688
000210 51 70 e9 3c 70 ea b3 bc d3 83 36 3d bd da f7 3c
       0.02849594 -0.021962374 0.04455931 0.03025567
000220 5f 58 73 bb 75 e8 52 3d 2c 96 36 3d c9 b3 46 bd
       -0.003713153 0.05149122 0.04457681 -0.0485113
000230 39 d5 d4 3c e8 87 83 3b 0a cc 2e bd 25 d7 48 bd
       0.025980579 0.004014004 -0.042675056 -0.049033303
000240 44 0b fc bc 8a 6f af 3c ae 0d 16 bd 12 01 92 bd
       -0.03076709 0.02141549 -0.03663414 -0.071291104
000250 f8 95 be bd b1 45 dc b7 ca 25 32 bd 0f d3 c5 3d
       -0.09305948 -2.6258496e-05 -0.04349307 0.09659397
000260 c5 58 b8 bd c3 74 0c bc b1 d9 7e bc 87 46 9e bd
       -0.090013064 -0.00857276 -0.015554831 -0.07728296
000270 02 29 13 bd e9 60 7f bd 67 9d 0a 3d 13 de 0a 3d
       -0.03592778 -0.06234828 0.033841517 0.033903193
000280 2b 8e e4 3d b4 b1 36 bd 8c 5b 24 3d 44 df 7b 3d
       0.11159929 -0.044603065 0.04012637 0.06149222
000290 d0 32 a3 3d 85 f3 c6 3c 33 6a 34 3d ac 09 aa 3d
       0.07968676 0.024286041 0.044046592 0.08302626
0002a0 68 2b a6 bd 00 92 a2 bd e6 5e 17 bc b7 7e 28 bd
       -0.08113748 -0.079380035 -0.009238934 -0.04113647
0002b0 2c f6 1b bd 19 99 3c 3c 2c 0f 8f bd d4 1a 84 bc
       -0.038076565 0.011511111 -0.06985316 -0.016126074
0002c0 f2 7c 8c 3d 3f db f4 3c 1c 6e d9 3c d0 68 b8 bd
       0.06859769 0.029889701 0.026541762 -0.090043664
0002d0 26 6c 9d bd 0a a0 97 bd 93 ce 20 3d eb d2 ad 3d
       -0.07686643 -0.07403572 0.039259505 0.08487495
0002e0 73 4a 3d 39 ff 3e 10 3d 3f a0 67 bc 06 c6 43 bd
       0.00018052179 0.035216328 -0.014137327 -0.04779627
0002f0 04 ee 6a bd fb 91 8c bd 01 24 15 bb a1 91 99 bc
       -0.057355896 -0.06863781 -0.0022757056 -0.0187462
000300 fc 4f 91 3c 1c 90 db bc 23 4c f1 bb ff 6e e6 bd
       0.017738335 -0.026802115 -0.0073638125 -0.112516396
000310 64 f2 b2 bc 3e e6 80 bc a0 31 e4 3c 3e 02 39 bd
       -0.021844096 -0.015734788 0.027855694 -0.045168154
000320 4f 19 a6 bd 83 8c 04 bd 4e 17 59 3d 86 ea c7 bd
       -0.08110296 -0.032360565 0.05300074 -0.09761529
000330 13 24 cd 3d 3d 38 07 be 6a d0 be bd 1c 86 c4 3d
       0.10016646 -0.13205047 -0.093170956 0.09595892
000340 79 e1 70 3d 99 7d 80 3c 00 c9 90 bc 04 ea 01 bd
       0.058808777 0.01568489 -0.01767397 -0.031717315
000350 ae 1f 31 3c 1a a8 e6 ba 77 9c f9 3d 3d f4 4f 3d
       0.010810776 -0.0017597706 0.121880464 0.050770033
000360 46 44 b2 3b 26 42 9f 3d db a0 3d bc 3d 38 1c be
       0.0054402677 0.07776289 -0.011573995 -0.15255828
000370 1d cf b1 bd 63 fa ef bd 5f 3d 93 bd f4 f4 4d 3c
       -0.08682082 -0.11717679 -0.0718944 0.012570608
000380 e7 89 3e 3b 03 01 82 bc e7 a7 15 3d 1a d8 45 bd
       0.0029073895 -0.015869623 0.036537077 -0.048301794
000390 2c 8d 0f 3d 8f 16 dd 3c e6 c7 c1 3d e2 8f 27 3d
       0.03504674 0.026988296 0.09461956 0.0409087
0003a0 16 ac 0d 3d bf 37 be 3d 4c da 8e ba 06 05 df 3d
       0.034587942 0.092879765 -0.0010898798 0.1088963
0003b0 7c f6 69 bd 48 9d 49 bb 76 ca 4a bd 07 92 36 bd
       -0.05711983 -0.0030763913 -0.049509488 -0.044572856
0003c0 3b e4 92 bd a2 f5 b6 bc a2 a1 14 3d db 0d 05 3d
       -0.07172438 -0.022333924 0.036286958 0.032483917
0003d0 f6 7b 9c 3d 37 dd 00 bd 18 9b 4b bc 59 fd 9e 3a
       0.07640831 -0.031460967 -0.012427114 0.0012129947
0003e0 90 79 09 3d 2e 86 9c bd 04 83 72 3d 3b cc 85 39
       0.033563197 -0.0764278 0.059206977 0.000255199
0003f0 1c dd de bc 36 c2 ae 3d 19 f5 af 3c 4a 03 6b bd
       -0.027205043 0.085331365 0.021479176 -0.057376184

encoder.rnn.weight_hh_l1 f4 [128, 32]
000000 b0 d5 d9 bd 82 8a 17 bd c0 97 c2 3c 43 1c a7 bd
       -0.10636461 -0.036997326 0.023754 -0.08159687
000010 22 d1 e0 bc b4 f1 2d bc b8 2d b0 bc de c2 1b bc
       -0.027443472 -0.010616709 -0.021506175 -0.009506909
000020 84 84 ab 3c 65 23 78 3d 23 e0 b4 bd ee fc ad 3c
       0.020937212 0.06058063 -0.08831813 0.02123877
000030 94 da 4e bd 61 c5 91 3b e9 9e b6 3d 1b 10 27 3d
       -0.05050142 0.004448578 0.089170285 0.040786844
000040 2f 9c 0a 3d cf 42 e8 3d a1 40 b5 bd 47 3d b5 3d
       0.033840355 0.11340868 -0.088502176 0.08849578
000050 2d 84 da 3c 53 8f 6b bc f2 1c 27 bd cb 78 87 bd
       0.026674354 -0.014377433 -0.04079909 -0.06614836
000060 2c 0c 21 3d 4f 4f 58 3d 3d 03 34 bb 51 df 08 bd
       0.03931825 0.05281001 -0.002746775 -0.033416096
000070 c9 82 b5 bc f6 98 1f bd bb ae a2 3d 70 78 a3 bd
       -0.02215709 -0.038964234 0.079434834 -0.07981956
000080 96 74 4a 3d 3c c9 24 bd 49 ee 7c bb 85 b8 5a bd
       0.04942759 -0.040230975 -0.0038594177 -0.053398628
000090 32 a6 c5 bd 6d 6b 24 bb 73 4c fa bd ca db 36 bd
       -0.0965084 -0.0025088445 -0.12221613 -0.0446432
0000a0 8b 8a d9 3c f2 f4 ec 3c 21 b1 04 3c 78 7f 81 bb
       0.02655532 0.028925393 0.008098871 -0.003951963
0000b0 7c c7 12 3c b6 79 8c bd f4 5d 81 bc 1b 97 f4 3c
       0.008958694 -0.06859152 -0.01579187 0.029857209
0000c0 0f 57 01 3c 04 92 00 bd 15 02 2a 3d 1d 6f d9 bc
       0.007894292 -0.03138925 0.04150589 -0.02654224
0000d0 f7 cf 0d bd ec 24 b1 3d 48 58 39 bd ae 40 a2 3b
       -0.03462216 0.086496204 -0.045250207 0.004951558
0000e0 fd c7 c9 3d 50 e4 24 3d 67 7e 07 bc 22 8c d7 bc
       0.09852598 0.0402568 -0.008269883 -0.026311938
0000f0 30 97 74 bd 48 a7 db 3c 8a 5a 09 3a 65 3c 34 bd
       -0.059714496 0.026813164 0.00052396266 -0.04400291
000100 d8 18 e9 3c f6 37 a2 3a ce 56 8e bd 1a e9 8f bd
       0.02845423 0.0012376297 -0.069501504 -0.070268825
000110 0c 42 1c bd c1 c2 21 3c 5e 10 d2 bc 45 7d 47 bd
       -0.038148925 0.009873093 -0.02564257 -0.04870345
000120 d2 b9 8e bd 04 20 05 3e 89 d5 5a 3b 2a 60 a9 bc
       -0.06969036 0.13000494 0.0033391437 -0.020675737
000130 02 5d f7 3b 18 48 3f bc 84 bb b6 3d a3 85 74 bd
       0.007548929 -0.011674903 0.089224845 -0.05969776
000140 a3 87 33 3d 96 0c 90 3d 01 e5 8d bd 71 f2 63 bd
       0.043830525 0.070336506 -0.06928445 -0.055651132
000150 92 b1 5d 3d 1a 68 2c 3d 30 79 b9 bd 97 19 e5 bd
       0.054124422 0.042091466 -0.09056318 -0.111865215
000160 df 71 c5 3d b0 eb b6 3a c0 fa f1 bc f3 a5 e8 bd
       0.0964086 0.0013955738 -0.029538512 -0.11359777
000170 6d 52 b8 3c ed c1 87 bd 85 db 60 3b 86 80 05 bd
       0.022500241 -0.06628785 0.0034310531 -0.032593273
000180 14 b9 c8 bb b1 5a 31 bc 65 2e 73 3c b2 0c d4 bd
       -0.0061255787 -0.010824845 0.014842604 -0.10353984
000190 d3 74 19 3d 20 8b d4 bd 1e 76 99 3b b3 6a f1 bc
       0.037464928 -0.103780985 0.00468327 -0.029469823
0001a0 5e b0 f9 bc 9a 09 9d 3a 7f 92 8a bc 23 ed 84 bc
       -0.030479606 0.0011981011 -0.016915558 -0.016226357
0001b0 37 97 8a bd dd 46 3a 3d 3e ec ad 3d 84 fc 96 bb
       -0.06767123 0.045477737 0.08492325 -0.004607739
0001c0 03 67 a2 3d 7b 44 96 3d 80 8c d3 3c 1c 16 6f 3d
       0.07929804 0.0733728 0.025823832 0.058370695
0001d0 5a 01 b6 3c ea 3f 3b 3d c2 af 46 bb 17 99 31 3d
       0.022217441 0.04571525 -0.0030317162 0.04335889
0001e0 d6 9e e8 3d 5c 2f 81 3c 5c 17 4e 3a 38 cc 9d bd
       0.113584206 0.015769653 0.0007861757 -0.07704967
0001f0 41 c3 b6 bd 06 7e 0a 3d 31 4a 4a 3d 8f 27 17 3d
       -0.089239605 0.03381159 0.04938716 0.03690296
000200 c0 b5 50 3d 80 f5 85 3d a5 7a 6f bd cd 9d de bd
       0.05095458 0.06540966 -0.058466572 -0.10869942
000210 73 2b 7e 3c 72 fc f0 bd f4 65 e8 3b ae 2b e1 3c
       0.015513289 -0.117669 0.007092232 0.027486648
000220 52 8a c0 3c 15 7c e2 3d b6 60 c5 bc f5 73 7e bd
       0.023503456 0.11058823 -0.024093967 -0.062122304
000230 74 27 ae bd 62 b7 70 bd c1 a2 8b 3d 1c 42 d8 3c
       -0.08503619 -0.058768637 0.06818152 0.02639871
000240 b5 22 7a 3d 43 65 78 3d 85 f1 0f bd de 09 a3 bc
       0.061068255 0.060643446 -0.03514244 -0.019902166
000250 b6 17 94 3d 8c ce 4d 3d d5 1c fe 3c bf 18 3f bd
       0.07231085 0.050245807 0.031019608 -0.04665446
000260 0f b2 c1 3d ab 6f c2 bc 99 86 9c 3c 10 91 8b 3b
       0.0945779 -0.023734888 0.01910715 0.004259236
000270 4e 55 c9 bd 52 92 79 bc 48 c1 e5 3c 75 51 77 bc
       -0.09830724 -0.015232639 0.028046265 -0.015095104
000280 75 ca bc bd 74 bd 65 3d 6a 1c f6 bd d3 c0 1f bb
       -0.09218303 0.05608888 -0.12017138 -0.0024376407
000290 b3 c4 f8 bd bf 07 8b bc 60 db 80 bc c3 4e 27 bb
       -0.121468924 -0.016971467 -0.015729606 -0.0025529123
0002a0 11 ec e7 bd 44 b4 bb 3d 6e 49 1f 3d e4 10 a7 bd
       -0.11324323 0.09165242 0.038888387 -0.081575185
0002b0 be de 6c bc 44 0b 3e bd 39 b3 63 bb 97 18 6b bd
       -0.014457403 -0.046397462 -0.0034744276 -0.057396498
0002c0 f8 6c 2e 3d 24 a4 f9 bc 6c 31 be bd b8 60 af 3c
       0.04258439 -0.030473776 -0.0928677 0.021408424
0002d0 4d 66 9c 3d 67 cb cd 3d 43 e9 f3 bd 44 07 97 bd
       0.076367 0.100485615 -0.119097255 -0.07374433
0002e0 16 ff db 3d a6 54 2c bb 0b f8 e7 bd f6 dc a1 bd
       0.10742013 -0.0026295572 -0.11326607 -0.07903473
0002f0 47 a8 97 bd 30 56 a6 bd 3c 71 9b 3d 1c 80 38 bd
       -0.07405143 -0.08121908 0.07589957 -0.04504405
000300 63 95 a3 3c cc 31 c7 3d 81 82 6d bd 86 f4 20 bd
       0.019968694 0.09726295 -0.057985786 -0.039295696
000310 68 56 e5 bd 31 66 eb bd 98 7a cf bd 13 43 8a 3d
       -0.11198121 -0.11494101 -0.10130805 0.06751075
000320 92 26 b4 bd 9d 00 b0 3d 55 1c 29 bd 64 d1 01 bb
       -0.08796419 0.08593867 -0.041286785 -0.0019808644
000330 ce 01 d7 bc 02 a9 11 be 25 f6 e5 bb f4 60 6b 3c
       -0.026245978 -0.14224628 -0.007017868 0.014366377
000340 75 24 0f 3e 30 27 ed bb 9c 95 01 be cc eb d5 3d
       0.13978751 -0.0072373375 -0.12654728 0.10445365
000350 de fa 87 3d f9 9d 1e 3d ac 9a e1 bd 3b 70 d3 bc
       0.06639646 0.038724873 -0.110158294 -0.025810352
000360 e1 eb 68 3d de 73 17 3e c9 0b 42 bd 90 a5 09 be
       0.056865577 0.14790294 -0.04737452 -0.13442063
000370 a9 86 17 be 52 a5 09 be 54 b6 43 39 3d 5a 15 bd
       -0.14797463 -0.13441971 0.00018664572 -0.03646301
000380 f8 0c e7 3c ef bb 89 bc 81 11 93 3d 55 e0 d3 3d
       0.028204426 -0.016813247 0.07181073 0.10345522
000390 fa 24 62 3d d8 21 7b 3c bb 96 7b bc b0 7b a3 bd
       0.055211045 0.015327893 -0.015355761 -0.07982576
0003a0 0d 2b 23 3d 5a 82 bd bc 5b d8 62 bd b4 77 98 bb
       0.03983598 -0.023133446 -0.055382114 -0.0046529416
0003b0 9f e9 25 3b 6c f4 b3 bc 6c f7 c6 3c c2 ba 08 3c
       0.002531625 -0.021967135 0.024287902 0.008345308
0003c0 fa 81 f3 bb dd 6b f2 bc 73 bf 7b 3d d5 3b 1a bd
       -0.007431266 -0.029592449 0.061461877 -0.037654717
0003d0 de 09 1f 3d 30 27 87 bd b5 13 dc bb 56 bc b7 bc
       0.03882777 -0.06599271 -0.0067162164 -0.022428673
0003e0 0b c4 42 3d 19 0f 4a 3d f1 92 a4 3d f4 31 5a bd
       0.047550242 0.049330804 0.08035839 -0.053270295
0003f0 ff 53 4e ba 6a 13 d0 3d 30 51 ca bc 37 f8 1a 3d
       -0.0007870793 0.10159953 -0.024696916 0.037834372

encoder.rnn.bias_ih_l1 f4 [128]
000000 36 7b 92 3d 36 8e 77 bd a3 d4 d7 3d fc 3a a6 3c
       0.07152407 -0.060438357 0.10538604 0.020291798
000010 2a b5 a2 bc 04 b3 aa 3d c5 89 ee 3d 21 0d 15 3d
       -0.019861776 0.08334926 0.11647371 0.036389474
000020 cc 07 1c bd bc e4 f7 3d 22 4a 31 3d 3a 84 c1 3d
       -0.038093373 0.121041745 0.04328359 0.09449048
000030 64 28 2c bb 93 76 b7 3d ba b3 34 3d 67 fb 51 bc
       -0.0026269192 0.08958163 0.044116713 -0.012816287
000040 89 88 34 3d 7e 70 72 3d a0 17 3c 3d f1 87 2f 3d
       0.044075523 0.059189312 0.045920968 0.042854253
000050 51 78 57 3d 18 86 04 bd d2 fe 60 bc 37 da e8 bb
       0.052604977 -0.032354444 -0.013732629 -0.0071060914
000060 0c 71 8f 3d e3 64 83 3d 5b 1d d4 bc f4 78 1c 3b
       0.07003984 0.06415727 -0.025892904 0.0023875805
000070 5c c9 0d 3d d9 78 ce bc 30 7b 6f bd 78 52 fd 3d
       0.03461586 -0.025204109 -0.05846709 0.12369245
000080 17 1c 17 bc 56 39 aa 3d 80 de a1 3d a1 a4 ea 3d
       -0.009223006 0.08311717 0.07903767 0.11457182
000090 6c 43 a1 3d db bf be 3d cb d5 bd 3d a9 9a 3e 3d
       0.07874188 0.09313937 0.092692934 0.046534214
0000a0 53 53 8c 3d ab 89 bc 3c ff 14 4b 3d 66 c8 98 3d
       0.0685183 0.023014864 0.04958057 0.07460098
0000b0 96 6f bb 3d 36 a4 b7 3d d6 d9 f9 3d 95 b3 67 3c
       0.09152143 0.089668676 0.12199752 0.014141937
0000c0 27 74 e6 bc b2 1b 07 bd 54 e0 b8 bb b1 b4 09 3d
       -0.028131558 -0.032985397 -0.0056419764 0.033619586
0000d0 3c 7c f7 3d a0 f2 b3 3d 4b af 81 3c 6f 1c 33 bd
       0.12084243 0.087865114 0.015830657 -0.04372829
0000e0 4b 6d 3f 3d b8 a6 a4 bc d3 93 72 3d fd e4 f9 3d
       0.04673509 -0.020099029 0.059223007 0.12201879
0000f0 41 3f b4 3d 29 f6 bd 3d 55 3c 8f bc 19 79 34 3e
       0.08801127 0.09275467 -0.017484823 0.1762432
000100 f8 40 cf bb cd 53 8d 3d 40 23 ce bd 3c cc 1d bd
       -0.0063248836 0.06900749 -0.10065317 -0.03852485
000110 7d 81 d0 bc 18 2a 81 bc 4f 3e 9b bd 54 56 75 bd
       -0.02545237 -0.015767142 -0.07580244 -0.059896782
000120 dc d4 ba bd 8d 85 11 bd 2f 02 ca bc 45 9d a9 bd
       -0.09122631 -0.035527755 -0.024659244 -0.0828195
000130 35 5b a4 bd 82 44 3f 3d cf ec 87 3d e4 4f a8 bd
       -0.08025209 0.046696194 0.066369645 -0.08218363
000140 0f 09 ab 3b 98 8c 01 bd 57 4a f1 bc 94 56 b0 3d
       0.0052195857 -0.03162822 -0.029454393 0.086102635
000150 e6 da 5c 3d 20 0a 91 3d 9b 3e 39 bd 0d e6 55 3c
       0.053919695 0.07082009 -0.04522572 0.013055337
000160 1e da 35 3d b5 07 3e 3d 2b d6 86 bd 69 3b f2 3a
       0.044397466 0.04639407 -0.06583818 0.001848084
000170 da cb a4 bd 14 1d 75 3d 4a 5b ff bc 50 eb 0a 3d
       -0.08046694 0.059842184 -0.03117146 0.033915818
000180 05 a4 cd 3c a9 49 b7 3d dd 0f b1 3d 2f 74 2f bc
       0.025102625 0.089495964 0.08645604 -0.010708853
000190 a0 37 0c 3c e0 c0 dc 3c 0f fb 00 3e 11 b7 c5 bd
       0.008558184 0.026947439 0.12595771 -0.09654058
0001a0 72 65 c8 3b 18 6f 05 3e 1e 46 8e bc 7b 15 65 3d
       0.006115609 0.1303066 -0.017367419 0.05592869
0001b0 8a 7f 0c bc e2 e9 ab 3d cc 07 50 3d 1a ad 25 3d
       -0.00857533 0.08394219 0.050788686 0.040448286
0001c0 43 ed 13 bd ce 02 52 3d 15 fe 42 bd be d2 a6 3d
       -0.036114942 0.051272206 -0.047605593 0.08145665
0001d0 ef 78 3e 3c 68 6a f4 3d 0e dc 81 3d ea ce 0d bd
       0.0116255125 0.11934358 0.063408 -0.034621157
0001e0 65 2d 0b 3e 62 65 68 3c 9c 82 23 3c 18 a7 3f 3d
       0.13591535 0.014184328 0.00997987 0.046790212
0001f0 a2 de 2f 3a 66 00 cc bb c3 6c a8 3d 80 71 db 3d
       0.0006708895 -0.0062256334 0.0822387 0.10715008

encoder.rnn.bias_hh_l1 f4 [128]
000000 8f cd 64 bc 27 e8 07 bd fb a6 94 3d 21 ab 78 3d
       -0.013965025 -0.033180382 0.072584115 0.060710076
000010 e4 e7 1c 3d 71 63 40 3d 68 3c 13 3d 3e 99 b8 bd
       0.038307086 0.046969835 0.03594628 -0.09013604
000020 2f 52 31 bd f3 fe c8 3d 14 ec 32 3d 17 86 71 3d
       -0.043291267 0.09814253 0.043682173 0.05896577
000030 f8 4b ab 3d 56 93 29 bb 59 cb 97 3d 78 b1 4f 3c
       0.08364099 -0.0025875173 0.07411832 0.012676589
000040 08 15 24 bc b0 b2 96 bc 99 b8 74 3c d6 58 0f bb
       -0.01001478 -0.018395752 0.01493659 -0.0021873019
000050 9f 5b 00 3e 2c 34 e7 3d 9e 30 a1 ba 1a f0 dc 3b
       0.1253495 0.11289248 -0.0012297814 0.0067424895
000060 5c e7 75 3d 84 94 d0 3c 97 fc fc 3c 47 be 5b 3d
       0.060035095 0.025461443 0.030882163 0.05364826
000070 8c e0 93 bb a9 59 d9 bc 80 69 b4 3c 6a 57 9c 3c
       -0.004512852 -0.026532011 0.022022963 0.019084651
000080 bc fe 5e bc d4 5a 2e ba c7 01 e0 3c dc a7 9f ba
       -0.013610538 -0.00066511077 0.027344598 -0.0012180763
000090 5f d4 fc 3d 76 cd 4a bb a5 3d eb 3c b4 31 18 3d
       0.12345194 -0.0030945218 0.028715918 0.037156776
0000a0 25 2f ab 3d c7 16 d4 3d 81 6d ca 3d 27 91 8b bc
       0.083586015 0.10355907 0.098841675 -0.017036987
0000b0 52 18 f4 3d df 9a f6 3c 94 c2 0e 3c 16 59 5a bd
       0.11918701 0.030103145 0.008713383 -0.053307615
0000c0 ab bb c1 3d ab 75 b3 3c 52 73 13 bc ea 35 a1 3d
       0.09459623 0.021906694 -0.0089996625 0.078716114
0000d0 55 d0 bd b7 86 8d cd 3c b4 08 1a 3d 9d 9a a3 3a
       -2.2627568e-05 0.025091898 0.037605956 0.0012481991
0000e0 57 de 15 3d f5 22 7f 3d e0 31 26 3d 40 56 5c 3d
       0.036588993 0.062289197 0.04057491 0.053793192
0000f0 9c 4d e6 3d 94 7e ad 3c 68 a3 04 3d 44 32 cf 3d
       0.112452716 0.021178521 0.0323824 0.10117009
000100 a1 7c 92 3c de bc 4e bd 79 6e 52 3d ad 02 31 bc
       0.017881693 -0.050473087 0.051374886 -0.010803861
000110 70 f1 c0 bc 59 bc a1 bd 43 06 ca 3c f2 89 1a bd
       -0.023552626 -0.078972526 0.024661189 -0.03772921
000120 ec 40 b8 bd 0f 4c 3f bb 70 69 73 bd 70 54 a2 bc
       -0.08996758 -0.0029189622 -0.059426725 -0.019815654
000130 eb cd 4f 3c 3f da 88 bd db c2 63 3d 55 ce 69 bd
       0.012683372 -0.06682252 0.05560575 -0.05708154
000140 fc 05 96 3c b3 cd 9b 3d 56 d5 b4 bd 89 a1 03 bd
       0.0183134 0.076075934 -0.08829753 -0.032136474
000150 a2 58 54 bb f8 2e 71 3d 3e ef ff bb 4c 50 5b bd
       -0.0032401462 0.058882684 -0.0078105023 -0.053543374
000160 75 27 9c 3c ad 07 d9 3d 44 65 93 bd d6 51 a2 bc
       0.019061783 0.10597167 -0.07197049 -0.019814413
000170 89 23 1d bd 8c fb b6 bd 55 c2 fa 3c ad 1e 31 3d
       -0.038363967 -0.089346975 0.030610243 0.043242145
000180 12 3c 98 3d ff 25 9b bc bb 6c b7 3d 77 8d 53 3b
       0.074333325 -0.018939016 0.089562856 0.0032280365
000190 38 7f f7 3d 0f 6c f0 3d 4f 3d 27 3c 02 cb 2f 3d
       0.12084812 0.117393605 0.010207488 0.042918213
0001a0 29 a4 35 3c 5c 4a f1 3c dc 4b cd 3d eb 42 86 3d
       0.011086502 0.029454403 0.10024235 0.06555732
0001b0 02 12 31 bc 5b 0b 06 bc cd 2b f9 bc 95 48 08 3d
       -0.010807516 -0.008181418 -0.030416394 0.033272345
0001c0 83 69 65 3d bb e9 cd 3d 61 e8 a8 3d ef 6d 6b 3d
       0.056008827 0.10054346 0.08247448 0.057477888
0001d0 78 17 c2 3d a9 24 e6 3c 35 ea 5b bc 7c 38 de bc
       0.094771326 0.028093653 -0.0134225385 -0.027126543
0001e0 3f 3e bb 3c c8 b7 39 3d 2f 70 65 3b e0 25 89 3c
       0.02285683 0.045341283 0.0035009494 0.016741693
0001f0 5a bb 22 bb 69 30 4b 3d 4e 5a d9 3b dd f4 81 3d
       -0.0024830909 0.049606714 0.0066330796 0.06345532

encoder.rnn.weight_ih_l2 f4 [128, 32]
000000 23 7e a8 3c fe b4 8f 3d c2 66 8f bd ee cf 0d 3d
       0.02056796 0.070169434 -0.07002021 0.034622125
000010 de 89 d9 3c fa c6 63 bd f1 21 84 bd b2 d0 6c bd
       0.026554998 -0.05560968 -0.06451786 -0.057816215
000020 9d d6 90 3d 01 d3 b0 bc cb 17 e3 3b d6 fb ca 3c
       0.07072184 -0.02158499 0.0069303266 0.024778288
000030 28 3a 4c bb ad d3 a2 bc 70 d3 29 bb c4 6b d1 3c
       -0.0031162594 -0.019876326 -0.002591338 0.025564082
000040 dd 0b 00 bd cd 19 2d bc 3f 09 0d bc b0 12 d8 bc
       -0.031261314 -0.010565233 -0.0086081615 -0.026376098
000050 c1 0d 08 bd 1d 7f 41 bd 21 11 f8 3b 54 ba 8d bd
       -0.03321624 -0.047240365 0.0075704013 -0.06920305
000060 0c e3 c2 3d 07 74 8b 3d 66 6e 86 bd 37 a1 90 3d
       0.09515962 0.0680924 -0.065640256 0.07061999
000070 4f e0 cc bc 0a e7 9e 3c 56 85 c8 bb d8 6c 46 3d
       -0.025009302 0.019397277 -0.0061194105 0.048443645
000080 29 f4 6c 3c e5 18 98 bc 40 65 f0 ba 05 e6 0b 3d
       0.014462509 -0.018566558 -0.0018340722 0.03415491
000090 95 a0 42 3d 46 ae f2 3c 8b 60 2f bd 39 dd be 3c
       0.047516424 0.029624116 -0.04281668 0.023298847
0000a0 a0 43 42 3d 4c c3 37 3d 15 53 be 3d 8b 8f 86 3c
       0.047427773 0.044863984 0.092931904 0.016425868
0000b0 9a 1e a4 bc 98 64 e5 bc 60 99 7e 3d 5a fb 83 bd
       -0.020034123 -0.028002068 0.06215799 -0.06444426
0000c0 19 9e 39 bd fa 9b 7d 3d 48 15 5a 3d 1c 6b 9e 3c
       -0.04531679 0.06191633 0.05324295 0.019338183
0000d0 71 0f d2 3c f6 39 72 bd 10 39 44 3d ec 80 4d bd
       0.025642129 -0.059137307 0.04790598 -0.050171778
0000e0 13 e0 82 bd 3e bc 84 bc fb f7 48 bd 49 97 0e bd
       -0.06390395 -0.016203042 -0.049064618 -0.034812246
0000f0 e4 44 aa bd e7 b8 48 3d e6 bd b2 bd 58 fe bb bd
       -0.08313921 0.04900446 -0.087276265 -0.091793716
000100 9e ad 2f bd 0c 69 46 bd 9c 74 31 bd 6b c0 22 bd
       -0.042890184 -0.048440024 -0.043324098 -0.039734285
000110 fc cd 9c bc 7b ac a0 3c a6 6f 1c bd 85 d9 81 3c
       -0.01914119 0.019613495 -0.038192414 0.015850792
000120 44 43 a7 3b 3d 00 58 bc 82 36 89 bc 44 ff b9 ba
       0.0051044542 -0.013183651 -0.016749624 -0.0014190455
000130 05 50 93 bd 6f ed c7 bc 2a 51 6a 3d 20 3a 87 3d
       -0.07192997 -0.02440521 0.05720631 0.06602883
000140 61 e0 8d bd 22 9e 8f 3d 6d a4 05 bd 43 a1 9c 3b
       -0.069275625 0.07012583 -0.03262751 0.004779966
000150 c5 83 b1 bb 40 79 4a 3d c7 f8 1d bc ee f7 bf 3c
       -0.0054173195 0.04943204 -0.009641833 0.023433652
000160 74 e9 8f 3d e8 2d 47 3d 2c 05 10 bd 82 8a 56 bd
       0.070269495 0.048627764 -0.035161182 -0.052378185
000170 79 e5 a0 3b a6 b5 a8 3d 67 bd e8 3c b0 be 38 3d
       0.004910168 0.08237772 0.028410627 0.04510373
000180 97 56 a9 3c 1e 75 99 3d 65 dd ad bd 2a 57 29 3d
       0.020671172 0.074930415 -0.08489493 0.04134289
000190 7a 50 99 3c 1e 86 c2 bc da 71 4c 3d 7b 0d 5b 3d
       0.018715132 -0.023745593 0.049913265 0.053479653
0001a0 29 4b ae bd e5 86 a7 39 bd 5d 2b 3d 38 ee 1d bc
       -0.085104294 0.00031953226 0.041837443 -0.009639315
0001b0 73 c7 07 3d 05 35 5f bd e0 2c 27 3d 51 9f 82 3d
       0.033149194 -0.054493923 0.04081428 0.063780434
0001c0 a4 ac ad 3d 00 00 09 3b 10 5f 46 3c ab 0b 9a bc
       0.08480194 0.002090454 0.012107626 -0.018804392
0001d0 be 60 08 bd b0 21 3e 3d ab 25 ee 3c 0c f9 32 bd
       -0.033295386 0.046418846 0.029070696 -0.04369454
0001e0 dd 07 4b 3c 00 68 6a 3d 09 23 ba bb 96 96 6b 3d
       0.0123920115 0.05722809 -0.005680446 0.057516657
0001f0 2e 3c 03 bd 2c 01 05 3c 2a 07 8d 3d 0d 55 81 bd
       -0.032039814 0.008117955 0.06886132 -0.0631505
000200 22 e8 b3 bd b4 db 6c 3c f5 48 82 bd 74 d3 94 3c
       -0.0878451 0.014456678 -0.06361572 0.018167235
000210 ff b3 56 bd df a8 8a bd c9 69 62 bd 57 69 0d bd
       -0.05241775 -0.06770491 -0.055276666 -0.034524288
000220 46 05 ce bc ca e5 e0 3d 61 43 cd bd b0 36 3f bc
       -0.025148999 0.10981329 -0.10022617 -0.011670753
000230 45 b9 93 bd 49 05 cb bd e9 e9 92 3d c3 d5 4a bd
       -0.07213072 -0.099131174 0.07173521 -0.049520265
000240 08 2c 68 3d 2b c2 89 3d 76 05 e1 bd 2a ca a0 bc
       0.056682616 0.06726488 -0.1098737 -0.01962765
000250 e0 55 c9 3d e6 f7 f7 3b 88 ef 9a bd 2f ac ee ba
       0.098308325 0.0075673936 -0.07565218 -0.0018209274
000260 40 5f 15 3e 67 0d 21 3d 5c 13 ba bb ee 57 35 bc
       0.14587116 0.039319422 -0.0056785773 -0.011068327
000270 04 17 96 bc 1e 89 70 3b 66 39 a8 3d 1f 77 b5 bd
       -0.018321522 0.0036702822 0.08214073 -0.08860611
000280 1a 5d 0b bd d9 3f 16 3c 30 8e 1f bd 9c 90 1c 3d
       -0.034024335 0.009170496 -0.03895396 0.038223848
000290 33 94 92 3c 3e 5f 64 bd be a1 80 3d f5 1e 09 bd
       0.017892933 -0.055754893 0.0628085 -0.03347679
0002a0 a3 b5 11 bd ca 9b 91 bd 3b 07 2c bd 3e a9 7e bd
       -0.035573613 -0.071097925 -0.041999083 -0.06217312
0002b0 1f 4a 8f bd 58 e9 85 3d 1f 4a 3c 3b 7d 5a 53 bd
       -0.06996559 0.065386474 0.0028730703 -0.05159997
0002c0 5c 67 aa b9 4c 27 94 3c 71 1f 83 3d 1e c9 59 3c
       -0.00032501935 0.018085144 0.06402481 0.013292579
0002d0 11 7b 50 3d bf e0 87 bd a3 6d 0f bc 65 5b f8 3b
       0.050898615 -0.06634664 -0.008754167 0.0075792545
0002e0 db d7 47 bd 57 09 ea 3a 84 3f 33 bd 4b c2 9d 3d
       -0.04878984 0.0017855567 -0.043761745 0.07703074
0002f0 9d c4 84 3d 75 42 6f 3d d7 3c b1 bd c1 fd fe 3c
       0.064828135 0.058412988 -0.086541824 0.031126859
000300 92 54 43 bb 3f 66 71 bc b4 a2 bb bc fc b6 b7 3c
       -0.0029805047 -0.01473385 -0.022904731 0.022426121
000310 c5 12 8a bc ad 41 c4 bc 61 81 12 3d f4 ff 9e bd
       -0.016854653 -0.023957098 0.035767917 -0.07763663
000320 39 e3 4d 3c 5f 4e 03 bd c2 3b 1b 3c b2 45 2d 3d
       0.012566381 -0.032057162 0.009474697 0.042302795
000330 d2 45 d9 3c 3d f8 30 bd 6b 94 99 bd 64 bd 94 3d
       0.02652255 -0.04320549 -0.074990116 0.07262686
000340 71 fc 9a bd 2d 6e 4a 3d f1 4b 94 bd 7e c5 24 bc
       -0.075676806 0.049421478 -0.07241047 -0.010056851
000350 e5 59 35 3d 54 ce c8 3c 1f 59 ea 3c 06 b3 0f 3d
       0.044275183 0.024512447 0.02860695 0.03508284
000360 e7 04 ae bc cd 9e b5 3c 98 dd 67 3d 7f 82 11 3d
       -0.021242572 0.022170449 0.056607813 0.03552484
000370 18 20 ab bd 6a 3a b4 bc 9a 47 22 3d 8f b6 8d bd
       -0.08355731 -0.02200051 0.039619066 -0.06919586
000380 f9 90 4f bc cf b5 90 bd c4 b0 16 bd d2 8f a4 3c
       -0.0126688415 -0.07065927 -0.03678967 0.02008811
000390 94 e4 46 bd 45 2f b0 bd f3 57 49 3d 91 64 e2 bd
       -0.048557833 -0.08602766 0.04915614 -0.11054338
0003a0 79 7a 89 3d 15 23 dd bc bf 77 e5 3c 19 0c b6 3d
       0.06712813 -0.026994267 0.028011201 0.08889026
0003b0 2c a7 39 3b f3 1d 86 bc f0 39 23 3d 47 94 72 3d
       0.0028328402 -0.016371703 0.039850175 0.05922344
0003c0 eb 3f 3b bc 46 ea 4b 3d bf 59 d1 bd 31 38 e0 3d
       -0.011428813 0.049783967 -0.10222196 0.10948218
0003d0 68 67 a3 3c f5 12 90 3d ca cb 1f bd 07 3a 4b bd
       0.019946769 0.07034866 -0.039012708 -0.049615886
0003e0 26 bf af 3d 4b 42 68 3c 1d 68 17 3d 77 c7 6f 3d
       0.085813805 0.014175962 0.036964525 0.058539834
0003f0 3a dd c8 bc 46 b7 bf bc 65 40 48 3d 05 8f 10 bd
       -0.024519552 -0.023402821 0.048889536 -0.035292644
