rnn/l2race-model_09072020_2_flip.pt (torch, 536659 bytes, 66 tensors)

encoder.rnn.weight_ih_l0 f4 [128, 32]
00000000: 1336 873a 7c5f 50bd d94d 8abd f575 633d
00000010: b814 f03a 8d77 70bd 69d5 95bd 226e 693c
00000020: fcd9 67bc b2eb 8c3c a019 653d ec13 edbc
00000030: 9805 593c 95cb 26bd 4115 79bd 3b3a 8fba
00000040: 206e a13c d6ff e43c 8414 99bd d681 093c
00000050: 0ef1 10bd f665 89bd 00d8 363d 5fd5 223d
00000060: 9897 38bd f5b9 a53c 5fbb fc3c 595c efbc
00000070: 96d1 c5bd 3934 5dbc 0db5 1bbd 4356 df3c
00000080: 053b e73d c54e 8fbd 00f1 f33d cee8 97bd
00000090: e3f2 763c 23dd 85bd 1b4d ae3b 492d ddbc
000000a0: 05ed 933d c351 81bd 0ed7 e43d d0bd 813b
000000b0: 94dd d03c dda4 2dbc d78a ca3d e96f e5bd
000000c0: 0bef 9b3d ba59 a6bd b43f c23c a1c6 fcbd
000000d0: 5c93 a2b9 0037 4f3c 23a4 ff3c 8fa0 afbc
000000e0: eb18 debc dce4 163d 129d 5d3d a38c 7e3d
000000f0: 3e0d 153c 2b75 0b3e deba 483c 10a8 a73d
00000100: df4f f0bc 6dcf 27bc 87c5 323d 437d cd3d
00000110: 2bb3 fcbc be51 473d dc7f fc3c 9021 da3d
00000120: 80fe 913d 80af 203d 4934 ad3d 8308 a03b
00000130: ab5b 57bd 6bcd 313d f7fd 593d 955e 003e
00000140: 3ed8 69bc 8f31 c43d abc9 763c 2874 f23d
00000150: d3ca 01bd 8dc3 e83d 36f7 15bd 3d21 b73d
00000160: 1101 d53c 10a6 043d 5ed5 6d3c 8204 d0bc
00000170: af23 653d 7cd5 693d c206 2a3e 3f00 b93d
00000180: 18ea 393d d338 293d aee8 42bd 4205 13bb
00000190: 0016 f4bc 95bf 0d3d 1cbe 823d b460 4f3d
000001a0: dfd7 663b bdb0 a93d 511d 37bd d17a 1abc
000001b0: 754c 353d 2d23 fcbb 385a 3abd 07fe 7f3c
000001c0: 3fbc fbbc 5e5a 243d 8bac 96bc ad0d 2c3d
000001d0: 2bfd 6e3d 5e5f 973d f766 ad3d 5921 293d
000001e0: dd88 61bd 47f1 513c 0abd b13d 6e62 023d
000001f0: 467b 9fbc 8367 103d f9d3 d73b 77b5 853d
00000200: 5691 b63c 0705 bc3d aee4 e03c 00a7 153b
00000210: 8083 003d 54b7 2b3d 1bdd 4e3d c538 5d3d
00000220: ed1e 543c f1b1 cd3d 1400 b23d c74e e83d
00000230: 79a1 f13d 0679 e63d de78 8b3d cd8b 9f3c
00000240: 2553 113e 7c63 c33d 6d8b d63d 91a3 06bd
00000250: cca6 073e aa7c 97bb f627 bb3c 5ae3 8abd
00000260: 035d 9f3d 201c 953c 4baa 6c3d 1e22 dabb
00000270: 8ca1 423d 385d c43d 37be cebc 48dc cf3c
00000280: 4c16 2bbc 477c 3cbc 4788 b83c 19af e53c
00000290: b2ca c7bd 4cbb 1b3d e340 b9bd fb10 b23d
000002a0: 6095 57bd 4935 593d b9e1 c8bd 19df 4cbd
000002b0: 7648 bc3c 47a4 ac3c e12e 5fbd dc0f 11bd
000002c0: 9062 abbd 762c 84bc b12b 95bd 44d0 13bd
000002d0: f597 a4bc 3f34 47bb 3928 2cbd 2161 9a3d
000002e0: e7bf 3f3d b000 d23b 8a65 d5bc 7085 883c
000002f0: 87eb 10bd 4a9c cf3d cd76 cebd 5303 9dbd
00000300: 5e2d ad3c 814f ac3d db78 d4bb 4363 933d
00000310: 29a1 e13c 9a2f 483d a8a5 af3d 6db2 193e
00000320: 6f3e b73d ceca 103e 60bc a73d 04c4 c73d
00000330: 6c34 b63d 9cff 8a3c 4f5d d1bb 6229 ce3b
00000340: 278f 0d3e 02bc b73d a6bc 6c3d 46c0 313c
00000350: 450c 7c3d 57bb fc3d 99b5 853d 56ad b8bd
00000360: 3607 8d3d 030e 8f3d f5be 26bd bb02 913d
00000370: 5a90 983d 1e24 abbc d951 01bc 4f18 0abd
00000380: 9c70 c73d 1356 a7bd e963 0d3e 0d8c 95bd
00000390: cd5f ef3d 38e6 e0bd aae9 013e 8eb3 f73b
000003a0: 7562 8a3d f477 b7bd 2fb4 df3d 518f fa3b
000003b0: 5eb0 f73d b508 ecbc b676 0f3e fff8 81bd
000003c0: e439 323d 8b27 8dbc 06a5 003c e66e 00bd
000003d0: fba5 27bd f377 c53c e206 4b3e 3c4d aabd
000003e0: 0c2f 80bd 305f e73b 61fe bf3d 85be 973c
000003f0: b33c 233d 5cda f83b 97fe f73d 5938 d63d
0.0010315798 -0.05087231 -0.067531295 0.055532414 0.0018316722 -0.058707763 -0.073160954 0.014247449
-0.014151093 0.017202232 0.05593264 -0.028940164 0.013245963 -0.040721495 -0.060811285 -0.0010927388
0.019705832 0.027954023 -0.07474616 0.008392772 -0.035386138 -0.06708901 0.044639587 0.039754268
-0.045066446 0.020230273 0.030851064 -0.02921884 -0.09659116 -0.01350122 -0.03801446 0.027262812
0.11290554 -0.06997446 0.119112015 -0.07417451 0.015072557 -0.06536319 0.0053192503 -0.026999133
0.07222942 -0.06314423 0.11173831 0.003959395 0.025496282 -0.0105983885 0.09889763 -0.11202986
0.07613953 -0.08122583 0.023712017 -0.12342573 -0.0003100884 0.01264739 0.031206196 -0.021438865
-0.027111491 0.03683935 0.054104872 0.06214584 0.009097395 0.13618915 0.012251584 0.08186352
-0.02933496 -0.010242325 0.043645408 0.100336574 -0.030847153 0.04866194 0.030822687 0.10650933
0.0712862 0.03922987 0.08457238 0.004883827 -0.052577656 0.043408792 0.053220715 0.1253608
-0.014272748 0.09579765 0.01506273 0.11838561 -0.03168757 0.11365423 -0.03661271 0.089418866
0.026001485 0.032384932 0.014516203 -0.025392774 0.055942234 0.05708836 0.1660414 0.0903325
0.045389265 0.041313957 -0.047585182 -0.0022433554 -0.029795647 0.034606535 0.06383917 0.050629333
0.0035223884 0.08285663 -0.044705693 -0.009428696 0.04426237 -0.007694623 -0.045496196 0.01562453
-0.030729411 0.040125243 -0.018392822 0.04200523 0.05834691 0.07391237 0.084669046 0.04129157
-0.055062164 0.012813873 0.086786345 0.03183215 -0.019467961 0.035254966 0.0065865484 0.06528752
0.022286098 0.091806464 0.027452793 0.0022835135 0.03137541 0.041922882 0.05050383 0.054009218
0.012946826 0.10043705 0.08691421 0.113431506 0.117983766 0.11253552 0.06810163 0.019475842
0.14191873 0.095404595 0.10475812 -0.032870833 0.13247222 -0.0046230154 0.022846203 -0.06781645
0.077814125 0.018201888 0.05777959 -0.006656899 0.047517344 0.095880926 -0.025237186 0.025373593
-0.010442328 -0.011504239 0.02252592 0.028037595 -0.09755458 0.038020417 -0.09045579 0.08694645
-0.05263269 0.053029332 -0.09808678 -0.05001745 0.02298377 0.021074427 -0.054488067 -0.035415515
-0.08368409 -0.016134482 -0.07283724 -0.03608729 -0.02009199 -0.0030396131 -0.042030547 0.07538057
0.04681387 0.0064087734 -0.026049394 0.01666519 -0.035380866 0.10137232 -0.10081253 -0.0766665
0.021139797 0.08413602 -0.0064841337 0.07196667 0.027542667 0.04887352 0.08576518 0.1500947
0.08947455 0.14139864 0.081902266 0.09754184 0.088967174 0.016967587 -0.006389297 0.0062915543
0.1382414 0.089714065 0.057797097 0.010849064 0.06153514 0.1234042 0.06528778 -0.09017436
0.06886141 0.069850944 -0.040709455 0.07080599 0.07449408 -0.020891245 -0.007893049 -0.03371459
0.097382754 -0.08170714 0.13807644 -0.07302103 0.116881944 -0.10981411 0.12686792 0.0075592464
0.067570604 -0.08958426 0.10923039 0.007646479 0.12094186 -0.028812746 0.14010128 -0.0634632
0.04351224 -0.01723077 0.007851845 -0.03135576 -0.040929776 0.024105048 0.19826844 -0.083155125
-0.062589735 0.007060908 0.09374691 0.018523464 0.03985281 0.00759439 0.12109106 0.10459966

encoder.rnn.weight_hh_l0 f4 [128, 32]
00000000: e1f1 b43c d610 4abd 002e 10bd 53eb 9f3c
00000010: 637f 28ba 7e1c 1cbd 97c5 e63d 92b1 033e
00000020: 3ef8 a7bc d6bd 54bc beb2 703b 8d66 233d
00000030: 13e7 933d b8cf 2bbd 3089 6f3c 2e55 283d
00000040: d872 3fbd 4f66 c93c 9151 ed3b 02c7 9c3d
00000050: 57b6 1c3d b16d b63d 7dca 9cbc 0025 8abd
00000060: d8bc 1cbd 4b9d 2539 7c61 33bd dcf9 a7bd
00000070: 82ea 5bbd 8def cfbb eedf c0ba bec4 793d
00000080: 8957 f33d c8b7 efbd cb6c 363e f9f8 b8bc
00000090: 5dfb 2a3d 1381 773d 21b9 3fbd 1c21 373e
000000a0: de4d 9abd 265a d5bc 08b8 1f3e 5f58 273d
000000b0: ec7c 003d 8ae3 8cbd 378a 97bd 441e f83d
000000c0: c8f0 d83d e313 dbbc 7d77 58ba 119d babd
000000d0: 4bed 7bbd 08d2 053e 2dd6 803b 16c8 503d
000000e0: b50e 67bc 777a 9fba da40 653c 09a8 583c
000000f0: b8e8 cebd b9bb d3bd 153a a2bd a5dd 12bc
00000100: 2f3c c73d 39ee 253c 570e 28bd 9e39 54bc
00000110: c5de 30bd 3f52 31bd 09dd 29bd f9e1 0ebd
00000120: 0584 8f3d 4858 45bd b082 10bc f93a f3bc
00000130: 1303 0d3d c525 afbd 5dd0 debd 0cbf 53bd
00000140: 807c 0b3d 22d0 8bbd fa30 00be 9899 86bb
00000150: 221d db3a 914a 03bc 2ea5 f2bb e0bb 6ebc
00000160: 87d9 d8bd d20a 793c 6021 bdbd e163 083a
00000170: bcc0 bfbd 1879 28bc da94 1fbc 6a5a 553a
00000180: 1313 823d 7ea1 a4bc e155 bdbb 7446 053d
00000190: cfeb 1f3d 5663 acbd eb0a db3c 43f6 96bb
000001a0: 1bd1 66bd 3864 92bc 3f79 5f3c f697 0c3c
000001b0: 0088 323d b0ed 0b3d d6dd 89bd 6556 773d
000001c0: 51dd 943d e42e 86bd 1170 71bc 7080 85bd
000001d0: a207 1a3d 8281 cb3c c45a 8fbc 3915 35bd
000001e0: da27 a0bd 7b9c b13c 206b 2c3c 6c10 5a3c
000001f0: 0526 0fbd a4b6 283d 58ab a6ba 7f17 773c
00000200: 5f85 c33d 529e 52bd d429 013e 7cad 27bc
00000210: 838d c23d fdd4 8cbd 0445 16bd 439d 3cbd
00000220: f719 93bd 5422 253d ab85 f73c 7aa1 a8bd
00000230: 6232 343d db42 b53c b514 56bd 780e 0e3b
00000240: dba2 903c 21b0 e1bd 5d25 f9ba 69f9 03be
00000250: d162 4bbd e21e 2a3e 368e 94bc b5a6 c13c
00000260: 0931 a83c 13b4 d63d 5e0b 3abd af66 c8bd
00000270: 72aa 2bbe 8e96 eebd bbdf ccbd b35f 423d
00000280: 6ecf 5c3d 493a cc3c 303b 353c cd1d d83d
00000290: 4bf1 493d c85c 37bb 6be9 983d db95 963d
000002a0: 7c94 9bbd af70 91bd d410 8cbd ec99 e13c
000002b0: f230 493d 8c20 1ebd d09a 53bc afb0 8a3d
000002c0: 0d27 c53d 76a2 e3bd 0573 85bd 7c15 543d
000002d0: d2d4 7b3d 408f dfbb 8618 8c3d 4ab1 863c
000002e0: 48a9 813c 5e8d a7bc ba0f 79bd 094e 11bd
000002f0: e01f 243d 39ca cabc ecb0 8cbd 430b dc3d
00000300: 2c03 003e 5515 823c 5190 e3bb bd5c ccbd
00000310: 8656 13bc af85 dcbc b16d c6bd ed49 1bbe
00000320: e7ea 8c3c 1baf 2a3d 1a8e fe3d f8f4 76bd
00000330: 3fcd 843d f924 8e3d 4d8e 05be ecd9 d63c
00000340: 43d0 4d3d f84b ce3c 20d9 b3bd a234 90bd
00000350: 5aae bfbd c0f3 223d eeb0 03bc 8e91 ee3d
00000360: 86aa 2dbd 4667 bb3d 6621 e6bd e80f 30bd
00000370: cc91 38bd ba9a df3c 358d 16bd b172 083e
00000380: 0fb2 0c3e ea16 46bd e0fa 2f3e 9e2e 213e
00000390: 890c 663d 817e 25bd 0334 b9bd d514 da3d
000003a0: 6b39 b2bd 9994 2f3d 9ff1 643d 4964 6a3b
000003b0: fe34 bc3d 4984 59bd e707 acbc 6df0 ee3d
000003c0: bc20 d53d 784b 14bd e334 acbc e875 1bbd
000003d0: abd2 f3bb 709f 223e 0e53 b73d a9f7 16bd
000003e0: 5fe9 50be 33a9 8f3d 3eaf 07bb 3d29 e5bc
000003f0: a480 86bd d724 0bbe 55de 8fbd af9e fd3c
0.022087993 -0.049332462 -0.03520012 0.019521391 -0.00064276735 -0.03811311 0.11268156 0.12860706
-0.020504113 -0.012984714 0.0036727632 0.039892722 0.07221808 -0.041946143 0.01462011 0.04109686
-0.046740383 0.024584917 0.0072423895 0.07655145 0.03825983 0.08907641 -0.019139523 -0.067453384
-0.038266033 0.00015794222 -0.04379414 -0.08201954 -0.05369044 -0.0063456954 -0.0014715174 0.060978644
0.118819304 -0.11704975 0.17814939 -0.022579657 0.041743625 0.06042583 -0.046807412 0.17883724
-0.07534383 -0.026043963 0.15597546 0.04085576 0.031369135 -0.06879337 -0.07399409 0.12115148
0.105928004 -0.026742881 -0.0008257551 -0.09111989 -0.061505597 0.13068402 0.0039317817 0.050972067
-0.0141026275 -0.0012167235 0.013992513 0.013223656 -0.10102981 -0.1033854 -0.079212345 -0.008963977
0.09728276 0.0101275975 -0.0410293 -0.01295319 -0.0431812 -0.043291327 -0.04147056 -0.034883473
0.070076026 -0.048179895 -0.008820221 -0.029691206 0.03442676 -0.08552126 -0.10879586 -0.05169587
0.03405428 -0.068268076 -0.12518683 -0.0041076653 0.0016717056 -0.0080133835 -0.007404945 -0.01457116
-0.10588365 0.015200334 -0.092348814 0.00052028714 -0.09362933 -0.010282777 -0.009740079 0.0008138778
0.06351294 -0.020096537 -0.00577806 0.032537892 0.039043244 -0.08417384 0.026738605 -0.0046069934
-0.056351762 -0.017870054 0.013639747 0.008581152 0.04358673 0.034162223 -0.06731765 0.060385127
0.07268775 -0.065519124 -0.014736191 -0.06518638 0.037604935 0.024842028 -0.017499335 -0.044209693
-0.07820101 0.021681061 0.010523587 0.013309579 -0.034948368 0.041189805 -0.0012715859 0.0150812855
0.09546923 -0.051420517 0.12613612 -0.010234233 0.094996475 -0.06876562 -0.036686912 -0.046048414
-0.07182687 0.04031594 0.030215105 -0.08233924 0.04399336 0.022126606 -0.05226584 0.0021676105
0.01765578 -0.11019922 -0.0019008328 -0.12888111 -0.049654786 0.16613343 -0.018134218 0.023639062
0.020531194 0.10483565 -0.045420997 -0.0978521 -0.16764238 -0.1164981 -0.10003611 0.047454547
0.053908758 0.024930136 0.011061475 0.10552559 0.04930238 -0.0027978886 0.07466396 0.073528014
-0.075966805 -0.07101571 -0.06839147 0.027539216 0.049118944 -0.038605258 -0.012915328 0.06771981
0.09626589 -0.11114971 -0.06516079 0.0517783 0.06148226 -0.0068224967 0.06840615 0.01644196
0.01582779 -0.020453151 -0.060806014 -0.03547481 0.04006946 -0.02475463 -0.06869683 0.107443355
0.1250121 0.015879313 -0.006944694 -0.09978626 -0.008992797 -0.026919214 -0.09688891 -0.15164919
0.017201854 0.0416709 0.124294475 -0.060292214 0.0648446 0.06940646 -0.13042565 0.02622696
0.050247442 0.02518271 -0.08781648 -0.07041289 -0.09359427 0.03978324 -0.008037789 0.11648856
-0.042398952 0.09150557 -0.11236839 -0.04298392 -0.045060918 0.027295459 -0.03675576 0.13325001
0.13739799 -0.048361696 0.17185545 0.1574044 0.0561643 -0.040403847 -0.090431236 0.10648505
-0.08702358 0.042866323 0.05589449 0.003576534 0.09189795 -0.053104673 -0.020999862 0.11666951
0.10406634 -0.036204785 -0.021021312 -0.03795424 -0.007440885 0.15881133 0.08951388 -0.03685728
-0.20401524 0.07014694 -0.0020703818 -0.027973766 -0.06567505 -0.13588272 -0.07024828 0.030959455

encoder.rnn.bias_ih_l0 f4 [128]
00000000: 96f0 46bb 36b7 8d3c 9c2f 583d 00b3 153d
00000010: 4d70 c93b aec5 4a3c 0a9f 9ebc 4bbf 9e3d
00000020: 4843 173e 29bf c33c b845 243d 6200 d03d
00000030: d8b8 e93d 0dec 343d 353d bc3d b231 e03d
00000040: a054 ae3d d0b5 a33d 04cd ad3d 1861 543d
00000050: 2720 ae3d 6951 a83d 18d2 46bd 5309 bc3d
00000060: 2b63 043d e3e8 a0bc 581f 03bd fc92 663d
00000070: 23c7 c13d 4d1f 543d 6054 c03c 4cb2 94bc
00000080: cf41 953d 5d11 cb3d f339 bc3d 3361 bdba
00000090: aa46 bf3d 1f4b 23bc a700 b53d 089b 4a3d
000000a0: afe3 9f3d 98de 0d3d 0d64 39bd 11fd 13bc
000000b0: e0ec d73d 5ee8 bf3c 6ce2 18bc 240a 14bd
000000c0: 58b7 4a3a f3ec c6bb ae0e a93d 6696 f4bc
000000d0: e8e4 36bd cba4 a33d 88ea 283d abb0 9a3c
000000e0: 502a f4bc f629 333d 009d 233d 506a db3d
000000f0: 96b2 e33d 87de b33d 89b9 22bd 202f 5ebd
00000100: 4501 1abd 7ca5 12bc c5d6 c33b 9e17 c33d
00000110: 42ff 513c c95c d53c 9175 123d e448 a5bc
00000120: 5e39 aebd fe73 64bd efcf 3a3d d290 62bc
00000130: 8b53 03bd 9aed 7ebb aa4b 933d c3f7 753d
00000140: d56f a33d 6f3b 86bd a608 56bc a296 383a
00000150: 1d59 a73c 6b6b 99bd afba cd3c 1303 f5bc
00000160: 242a 99bd 3a7d 27bd 2644 733d 95da 833d
00000170: 99d4 82b9 2321 663d df10 f9bb e2a9 563d
00000180: bc3f ce3c 0bde ae3d daf5 673d f9ff 8d3d
00000190: 2623 b73d e9f3 313d 1bdf d53d 1f03 303d
000001a0: 7e31 a43b 508f 8abd 28c4 e23d 01ff c03b
000001b0: 534c 713d 3525 8f3d bcd5 3e3d 698c f73c
000001c0: 82e5 6e3d 8731 1b3c 3d95 56bd 6fce 8dbd
000001d0: 1996 2f3d ffbf d13c 0254 02bd 0166 4dbd
000001e0: ba75 303d 4c20 c8bc 8f74 593d bd4c 4c3d
000001f0: 0acb 423c 1e54 ca3d 2a8a a93d 4d02 633c
-0.0030355803 0.017299276 0.05277978 0.03654766 0.0061474205 0.012376232 -0.019362945 0.0775133
0.1477176 0.023894863 0.04010555 0.10156323 0.11412209 0.044170428 0.09191362 0.10946979
0.08512235 0.07993662 0.08486369 0.05185041 0.08502226 0.08218653 -0.048540205 0.09181466
0.032321136 -0.019642299 -0.032012314 0.05629252 0.094618104 0.051787663 0.023477733 -0.018151425
0.072879426 0.09915421 0.091907404 -0.0014448523 0.0933965 -0.009966641 0.08838015 0.049464256
0.07807099 0.03463611 -0.04526143 -0.009032504 0.10543227 0.023426231 -0.009331327 -0.036142483
0.0007733009 -0.006070727 0.08254753 -0.029856872 -0.044651896 0.07990416 0.04123929 0.01888307
-0.029805332 0.04374119 0.03994465 0.10713637 0.11118047 0.08782678 -0.03972772 -0.05424416
-0.037598867 -0.008950587 0.0059765303 0.09525989 0.012817206 0.02604522 0.03575665 -0.020176359
-0.08507036 -0.05577468 0.045608457 -0.013828473 -0.032062095 -0.0038898946 0.07192166 0.060050737
0.07980315 -0.06554305 -0.013063585 0.0007041489 0.020428235 -0.074911915 0.025113432 -0.029908692
-0.07478741 -0.04089091 0.059391163 0.064381756 -0.0002495393 0.056183945 -0.007600888 0.052408107
0.025176875 0.08538445 0.056630947 0.069335885 0.08942251 0.0434455 0.104429446 0.042971727
0.0050107827 -0.06765616 0.1107257 0.005889774 0.05891068 0.069895186 0.04659055 0.03021832
0.058324344 0.009472257 -0.05238842 -0.0692414 0.042867754 0.025604246 -0.031818397 -0.050146107
0.043081023 -0.024429463 0.053089675 0.04987787 0.011889229 0.09879325 0.08278306 0.013855529

encoder.rnn.bias_hh_l0 f4 [128]
00000000: a318 86bd ae00 903d a5f4 4fbc e2f2 633d
00000010: 1968 85bc 4e34 c73d 7f42 4bbd b496 153e
00000020: 4dcd 2d3e 5244 4d3d 85e3 67bd d5e0 893b
00000030: 0a46 b73d e4e0 34bd 384c f1bc c205 4b3d
00000040: da22 e53c 9b31 2e3c b92f 02bd 1c1d 883a
00000050: 155a c3bc e5fe 123e 99f0 393d 03f4 593c
00000060: 70f1 4c3d 6156 7e3d 498a f93d a67f 563d
00000070: 4272 9c3d fc40 efbc 5d1b 02bd 3d43 0e3d
00000080: 0240 a13d 74e6 f33d c573 323d f88e 93bc
00000090: 117e 783d 79ef 8f3d b474 bc3d 95d5 bb3d
000000a0: d8a2 ac3d f609 483d 3550 dcbc 8005 ab3d
000000b0: 3b90 98bc 53c7 8ebc 07ac acbc dc6d 603d
000000c0: 96f9 14bd b25d 9c3d e5e2 22bd 739c 7dbd
000000d0: e6ec dc3c 05d9 6c3d 9925 59bd 6c21 85bc
000000e0: f19f 22bd d284 cc3c 69cb 953c 5e80 3e3d
000000f0: 9bc4 003e eba2 c93c 1a11 c4bc ba87 4e3d
00000100: d869 a2bc 61f5 5b3d 79ab a33d 26a9 bb3c
00000110: fb65 313d 8a8f f2bb fcec a83d eec1 923c
00000120: 643b ecbc dd19 93bd 6545 debc 6b73 c53d
00000130: 2016 913d 1aa5 56bd 475c 04bd cc19 0dbd
00000140: 6316 29bd 4b07 5c3c 152f 87bd aa7e 6d3d
00000150: d09c 983c e6dc abbc bd17 8e3d b2b7 333d
00000160: 2e79 d0bd 6101 413d e6a1 693d 4beb 35bd
00000170: db5d 513d 1995 f23c 9390 3a3c 9d02 a53c
00000180: 3169 613d 8c5f 273c e316 0cbd fa4b e53d
00000190: 0990 083c 201e 963d c7e5 21bd 4e9c ce3d
000001a0: 200a a2bc 5427 33bd 9de9 d13d 5ac7 b13d
000001b0: f960 973d d18b 7e3d 42c1 ca3c 7d32 ab3d
000001c0: 6f29 783d e4fe 3abd 97eb 9d3d 85fe 8e3d
000001d0: cafc bf3d 1fd3 b13d e7bc 42bc 7572 c3bc
000001e0: 9a2b 7a3d 6fcc da3c 8cd9 ddbc b8e0 f13d
000001f0: e710 0fbd 6a44 7fbc ffd1 ac3d dc63 6c3c
-0.06547668 0.0703138 -0.012692605 0.055651553 -0.01628499 0.09726773 -0.049623962 0.1460827
0.16972847 0.050113983 -0.056613464 0.0042077103 0.08948906 -0.044159785 -0.02945529 0.049566038
0.02797072 0.010631944 -0.031783793 0.0010384652 -0.023846665 0.14355047 0.045395467 0.013302806
0.05003494 0.062094096 0.12184579 0.05236783 0.076389804 -0.029205792 -0.031764377 0.034732092
0.07873537 0.1190919 0.043567438 -0.018012509 0.0606671 0.07028098 0.09201947 0.09171597
0.084294975 0.048837624 -0.026893714 0.083506584 -0.018623462 -0.01742903 -0.021078123 0.05479227
-0.036370836 0.076350585 -0.039767165 -0.06191678 0.02696843 0.057824153 -0.05301437 -0.016251288
-0.039703313 0.024965677 0.01828547 0.04650914 0.12574999 0.024613818 -0.023933936 0.050422408
-0.01982586 0.05370081 0.0799169 0.022907805 0.043310147 -0.007402365 0.08248326 0.017914739
-0.028836913 -0.071826674 -0.0271327 0.09641155 0.07084298 -0.052403547 -0.032314565 -0.03444843
-0.041281115 0.013429473 -0.06600777 0.057982124 0.018629462 -0.020979356 0.069381215 0.043876357
-0.10179363 0.047120456 0.057039164 -0.044413846 0.0511149 0.02961211 0.011387008 0.020142848
0.05503196 0.010215651 -0.034201514 0.11196132 0.008335122 0.07329965 -0.039525773 0.100884065
-0.019780219 -0.043738678 0.10249636 0.086806014 0.07391543 0.062145058 0.024750356 0.08359239
0.06058639 -0.04565324 0.07710951 0.069821395 0.093743876 0.08682846 -0.011885858 -0.023858288
0.061076738 0.02670881 -0.027081273 0.1181044 -0.03492823 -0.015580276 0.08438491 0.014428105

encoder.rnn.weight_ih_l1 f4 [128, 32]
00000000: 9f6e 86bc 477c 54bd 5dc8 f73c 0035 cf3c
00000010: 622e a93d 82b5 ddbd a57b abbd fbf2 a0bd
00000020: a585 943d 6892 75bd 5fa0 37bd 89aa 85bd
00000030: bb09 35bd 8b6d fbbd 8866 09bd 9902 923d
00000040: 8cdf f23d f7d2 39bd b5b2 80bd 07c5 1ebd
00000050: 14d7 8dba d9f6 813c e044 343d 22a0 8bbb
00000060: 2bb7 67bd 33f3 cf3d 4999 acbd fd3c 533c
00000070: 05dd e6bd a7d3 c6bd c9db 193d 6682 92bb
00000080: 1116 f23c 6ce7 27bc ec4d ea3c da57 68bd
00000090: 7136 9ebc 11c7 b0bd f1aa a1bc 0cb3 a53d
000000a0: 815d 693d ce5d c2bb 3e0b a5bd 416e c8bd
000000b0: 05f2 b73d 7a58 7ebd 0b3e 773d c581 423d
000000c0: ada6 5a3d 1f5d 8abd b2eb bb3c 2cad 933d
000000d0: 26f1 7a3d e96d ab39 abeb 9cbc 98b2 1abd
000000e0: a233 623d 8e92 9c3d 0365 82bd 8e1f cbbc
000000f0: 8f73 e2bc 64e0 b4bd 43fe 7abd e10c 5b3d
00000100: 48d7 a03d 7b11 cabc d44c 8abc 11c3 8d3d
00000110: 7392 37bc af2d df3b b92e 4e3d 0e95 83bd
00000120: cde2 60bd 7caf b1bd d80e 6c3d 5b69 cfbd
00000130: 8a23 013d 0d86 1fbc b806 72bd 0e06 0bbd
00000140: 0894 cd3d 7826 80bd a827 62b8 72b1 93bd
00000150: 674a 223d b8c9 72bd 82fb 36bd 0d6a 623d
00000160: 4f55 a2bd 1b9b 973d 32a1 8eba cbba c0bd
00000170: 057e 9c3c de0d 09bd e59f c4bd c609 043c
00000180: 5820 a33d 0355 51bd 4358 363d 048e 31bd
00000190: 7c06 16bd df81 c2bc dad3 2a3d 6af3 233d
000001a0: 9de9 723c dcf0 c5bd f8f1 933d f66f 94bc
000001b0: 3709 c0bc ae21 bbbd 66a3 35bd 98fa 9a3d
000001c0: eb1f 9a3d 1249 1d3d 68bc 1bbd c958 78bd
000001d0: f4a7 6abd c74d f73c 7744 963d c0ed 6a3d
000001e0: 347b 08bd ad27 48bd 9216 9d3d bdbd 493d
000001f0: dd55 53bd 1c5a a8bd d816 b33c 0579 a63d
00000200: 8c4e 0ebc d1a8 b0bd c9f1 803c ad42 1fbd
00000210: 327d 473d d4ab 68bd c437 853d 36a3 133d
00000220: 4cbe e1bc de3b 1f3d 1dcc 2b3d f0e1 b4bd
00000230: fb4e 0b3d da70 4fbc 0972 703b 4391 0cbd
00000240: 8c25 ebbc f893 693b 161a 9cbc c581 80bd
00000250: f31c ccbd 471a 693d dee0 1dbd 65b7 ca3d
00000260: 1ad1 99bd 2ec5 77bc ddad 02bc c763 d6bd
00000270: 39d8 80bd 3292 a2bd 0615 213d 42d6 523d
00000280: 0abb da3d 0bb9 b9bc d5a3 d43c dcf8 8d3d
00000290: 5f57 df3d 3061 d7bc dd67 943d e1ed 763d
000002a0: 2b19 98bd de99 b8bd b60f 38bd 1260 b2bd
000002b0: 46b8 58bc d4d4 75bb 6bbe 74bd 6c2e 02bd
000002c0: 0cb5 9b3d a176 58bb 8295 db3c bb35 73bd
000002d0: 4262 c4bd 8f97 b6bc 02ad 133d aa24 c53d
000002e0: 95a3 b83c a902 303d fd5f fabc 7a8a 8ebd
000002f0: 047a 8fbd 8775 b8bd 3fcf cfbb 3b86 933c
00000300: b12a 8e3b 9cac c1bd c197 c63c 3558 cebd
00000310: 39f1 26bd 623c 43bd 72ad 9abc 8650 77bd
00000320: 94ba b0bd 67ea 27bc d4a1 203d eda9 02be
00000330: 82d7 d33d 5b68 15be 3bcc 14bd dd36 d13d
00000340: 6e3b 403d d496 ab3c aae6 92bc 1add 99bc
00000350: 4161 e53b 9ca6 133e 8216 de3d 4a33 1c3d
00000360: e374 c13a 6a4c c33d 4f44 31bc f2ed 31be
00000370: ad47 06be 5b48 e2bd 5ae8 59bd bb2a a53c
00000380: e47c 943d d97a 253d 61f7 333d 6f26 b7bd
00000390: a3d4 b13d 1863 2ebd e907 523d 07ae 213d
000003a0: 5a22 783d 0ec7 5c3d 5004 9cbb 9181 a4bc
000003b0: b31f d0bc 75ff 7abd 4315 62bd 482a 0fbd
000003c0: bdb4 a3ba a5ea a9bd b0cb 8cbc 99c6 5c3c
000003d0: b077 a0b9 5159 12bd 627d 1b3d 835c 583d
000003e0: 9491 313c 425b dbbb 2a01 28bd b8cc 82bd
000003f0: 2f1c 9cbd 26f2 bc3c 1bf4 80bd a663 023c
-0.01641017 -0.051876333 0.030246908 0.025293827 0.082608 -0.108256355 -0.08373193 -0.07858845
0.07252053 -0.059954077 -0.044830676 -0.065266676 -0.044198733 -0.12276753 -0.033545047 0.07129402
0.118590444 -0.045367207 -0.06284086 -0.03876212 -0.0010821545 0.015864776 0.044010997 -0.0042610327
-0.056571167 0.101538084 -0.08427674 0.012892959 -0.11272625 -0.09708338 0.03756312 -0.004471111
0.029551538 -0.010248046 0.02860161 -0.056724407 -0.019313069 -0.08631719 -0.019734832 0.08090791
0.056973938 -0.0059315925 -0.08058785 -0.09786654 0.089817084 -0.062096097 0.060361903 0.04748704
0.05338161 -0.06756043 0.022939537 0.07210764 0.061265133 0.0003269755 -0.019155344 -0.037767977
0.055225022 0.076451406 -0.06366923 -0.02479532 -0.027642993 -0.088318616 -0.06127764 0.05347908
0.07853562 -0.024666538 -0.016882338 0.069219716 -0.01120435 0.006810866 0.050337527 -0.06424914
-0.054903794 -0.08676049 0.057631344 -0.10127517 0.031528033 -0.00973655 -0.05908844 -0.03394132
0.10038 -0.06257337 -5.391953e-05 -0.072115794 0.039621737 -0.059274405 -0.04467345 0.05527692
-0.079264276 0.07402631 -0.001088178 -0.09410628 0.01910306 -0.03346049 -0.0960081 0.008058971
0.079651535 -0.051106464 0.044517767 -0.043348327 -0.036627278 -0.023743568 0.041705944 0.04002706
0.014826206 -0.09665081 0.07223886 -0.018119793 -0.023441894 -0.09137283 -0.044345282 0.07567328
0.07525619 0.038399763 -0.038021475 -0.060631547 -0.05728908 0.030188454 0.073372774 0.057355642
-0.03332062 -0.048865963 0.076703206 0.049253214 -0.051595557 -0.08220312 0.021861479 0.081285514
-0.008685719 -0.08625949 0.015740292 -0.038881946 0.04870338 -0.056804493 0.06504777 0.036044322
-0.027556561 0.038875453 0.041942704 -0.08832157 0.03401087 -0.012661183 0.0036689064 -0.03431822
-0.028704427 0.0035641175 -0.019055407 -0.062747516 -0.09966459 0.056909826 -0.03854453 0.09898261
-0.07510586 -0.015122695 -0.007976023 -0.1046825 -0.06291241 -0.07938041 0.03932669 0.051473863
0.10680206 -0.022671243 0.025957027 0.06932232 0.109053366 -0.02629146 0.07246373 0.060285453
-0.074266754 -0.09013723 -0.044936858 -0.0870973 -0.013227528 -0.0037510889 -0.05975191 -0.031782553
0.07602891 -0.0033029693 0.02680469 -0.059377413 -0.09589054 -0.022289066 0.036053665 0.09626134
0.02253894 0.042971287 -0.030563349 -0.06960006 -0.070056945 -0.090067916 -0.0063418443 0.018008342
0.0043385853 -0.09456751 0.024242284 -0.10075418 -0.04075739 -0.047665007 -0.018881533 -0.060379528
-0.08629337 -0.010248757 0.03921683 -0.12760134 0.10343839 -0.1459059 -0.03632758 0.102155425
0.046931677 0.020945944 -0.017932255 -0.018782187 0.007000119 0.14419025 0.10844137 0.03813485
0.0014759566 0.09536059 -0.010819509 -0.17375925 -0.1311328 -0.11048957 -0.053200103 0.020161977
0.072503835 0.04040036 0.04393709 -0.089428775 0.08683135 -0.042574972 0.051277075 0.039472606
0.060579635 0.05390077 -0.0047612563 -0.020081313 -0.02540574 -0.06127878 -0.055196058 -0.034952432
-0.0012489777 -0.08296708 -0.01718697 0.013475084 -0.00030606752 -0.03572971 0.03796137 0.0528226
0.010837931 -0.0066942284 -0.041016735 -0.06386703 -0.07622563 0.023064684 -0.062965594 0.007958328

encoder.rnn.weight_hh_l1 f4 [128, 32]
00000000: c4e0 9abd 9588 2abd 9590 ac3c c3fa b2bd
00000010: 5344 56bb e6ed c83b cb59 bc3c ef30 09bd
00000020: 9067 a03c 08a6 293d 1569 aebd e26e 9abd
00000030: b7c9 cebd 43e7 823c 2c2b b43d d9e7 483c
00000040: f625 113d baee d63d b726 b3bd 88b0 c63d
00000050: 7e38 513b 0ef2 c8bc a327 b7bc d62c 93bd
00000060: 4619 cc3c 4244 483d f163 d4bb f6cf 91bc
00000070: 8e24 a4bc e194 bdbc 9ab9 983d 2c6f 75bd
00000080: 39ef 8d3d f291 5cbd 5cf4 9c3b 3819 1cbd
00000090: 2ccb 8bbd bb5d cc3c a073 96bd e7ae 14bd
000000a0: fbd9 1e3d d63b 9c3b d55d 933c e5b1 7cbd
000000b0: 5d4f a8bc 789a 50bd b3b4 1ebd cad9 d13c
000000c0: b019 cd3a 3c2b 54bd ab8a 653d 0409 d8bc
000000d0: 6709 71bd 8810 713d f034 7cbc 81a5 423c
000000e0: 6b24 9f3d c340 b63c 0c36 953b 0f54 1abc
000000f0: 6f30 21bd 988d 503d c43a 57bc 6a6d 9cbc
00000100: c4bc 823d e7b2 e9bc 25de 30bd bb1d 29bd
00000110: f70a 583c 42b3 6f3d 77eb 083d e7f6 0abd
00000120: 8e3a 2ebd 8788 b33d dc3c f63c bbd2 81bd
00000130: 4ff6 853c d333 cb3c 328d 523d aa9d 53bd
00000140: 713e ba3c 3f06 f63c 4aaf 17bd 52e7 80bd
00000150: 1b93 ae3b b2ae 91bb 0799 39bd a227 b8bd
00000160: 75fa 553d 65b7 f9bc d2d7 b5bb c2f4 9bbd
00000170: 14b0 763d ad2f c3bc 07ed d5bc 6482 773c
00000180: b899 503b 9206 b3bc b595 af3c 744d b5bd
00000190: 41ef 813d eaca 92bd fefc 233d 0d40 05bc
000001a0: b496 79bc 32ab b4bc e3d6 e9bb 9c2b 8cbd
000001b0: de90 e0bd c35f 6d3d c3d4 823d 1e2f b2bc
000001c0: 61df 963d 1e7a 6f3d 7287 183d f60c 813d
000001d0: 3437 913b 8cf7 b43c 0ee7 f23c 74bf 3d3d
000001e0: 8a7a d33d 55f4 92bb 9373 8b3c 610c 80bd
000001f0: bee4 91bd d019 623d 5f10 153d 4a7a 763d
00000200: bacc 773d e878 6c3d 7f6f 5dbd 6c5a e1bd
00000210: 9205 053d 3035 d0bd 7fab 2b3d 8e1c 1e3d
00000220: b1a8 fe3c 8296 d53d c9cd a3bc 8b7e ccbd
00000230: b7b5 19be 35e0 3fbd 1e7c 623d 587f 643c
00000240: 3cc7 6b3d 1dd4 523d 5fc1 e0bc c272 68bb
00000250: 94f5 643d d6ef 2d3d 53ec 743d 43b6 4abd
00000260: 66eb ce3d 12a1 1bbd e696 003d 1bc3 553c
00000270: 8e1d b3bd 722c 973a 4782 963c 2738 17bc
00000280: cc37 a7bd ba30 393d 22ba e3bd 0406 2d3c
00000290: c1ab c1bd 15b6 8c3b 7962 283c 7c82 b13c
000002a0: b8b1 cdbd b7d0 b63d c475 243d e9b2 c2bd
000002b0: d3f6 84bd 8104 e0bc 2c76 b1bc af1c 8abd
000002c0: 1184 2d3d 91f8 4ebd 7912 a1bd 051b 213d
000002d0: 8ae6 443d 60b4 b03d faed b1bd 1055 98bd
000002e0: a3cd da3d e63e adbc fba0 d3bd 0c1d 8cbd
000002f0: fb27 4cbd 9e3e 84bd da77 813d a485 0abd
00000300: f1c1 ee3c c47b 9f3d 3f15 2fbd 6bf0 2abd
00000310: 9af3 b5bd 2b18 d9bd 6e11 e3bd b8ff 413d
00000320: 50ac 8fbd 5b52 d33d 0367 e0bc 7a45 513c
00000330: b881 8bbd 4899 e6bd 2fa0 3bbc b5b9 2b3c
00000340: 0fc3 023e 4e33 ebbc 4c76 e9bd 73a8 e73d
00000350: be97 203d 3ccf 343d 909e 9fbd f347 8cbc
00000360: 39e2 a13d f66f 053e 5e0f 11bd 1dbc e9bd
00000370: afb6 02be b726 f6bd a68d 9bbc 8079 78bd
00000380: c140 e13c b573 0a3d 868a 943c 3226 663d
00000390: 71ae 1c3d bddd 03bc 7d41 b33b d18e bdbd
000003a0: e094 55bc ffbc d83b 9597 d6bd a9e1 d8bd
000003b0: 3cc9 e5bd b8ac 59bd d9db 893d 37e2 83bd
000003c0: 3951 363d b513 c63a 0d5b 003d b745 f03b
000003d0: 1bd6 6e3d 44b0 ffbc efd5 d2bc ef6c 9ebd
000003e0: b81b f83c 36ce ca3d 1e6d b83c 8b5b b7bd
000003f0: ebb1 23bd 4c5d 883d fe91 8d3c 6362 af3c
-0.07562402 -0.04163416 0.021065036 -0.08739235 -0.0032694533 0.0061318753 0.022992035 -0.033493932
0.019580632 0.041418105 -0.085161366 -0.075406805 -0.10097068 0.015979415 0.08797297 0.012262308
0.035436593 0.10494752 -0.08747619 0.097016394 0.003192454 -0.024529483 -0.022357767 -0.07186286
0.024914395 0.04889322 -0.0064816405 -0.017799359 -0.020036962 -0.02314228 0.07457276 -0.059920475
0.06930394 -0.05385012 0.004789872 -0.038109988 -0.06825861 0.024947038 -0.073462725 -0.036299612
0.0387821 0.004767875 0.017989079 -0.06169309 -0.020545656 -0.050928563 -0.038746547 0.025616545
0.0015647914 -0.051799044 0.056040447 -0.026371486 -0.058846857 0.058853656 -0.015393481 0.0118802795
0.07770618 0.022247678 0.004553562 -0.009419455 -0.03935283 0.050916284 -0.013136569 -0.019095141
0.063836604 -0.02852769 -0.043180604 -0.04128812 0.013186208 0.058520563 0.03342768 -0.03392687
-0.04253631 0.08766275 0.030058317 -0.06339022 0.0163528 0.024804985 0.051404186 -0.051664032
0.022734853 0.030032275 -0.037032403 -0.06294121 0.005327595 -0.004445874 -0.045311954 -0.08991934
0.052240808 -0.030482957 -0.0055494094 -0.07615043 0.060226515 -0.023826445 -0.026114 0.015106771
0.0031829905 -0.021853719 0.02143369 -0.08852664 0.06344462 -0.07167609 0.040036194 -0.008132947
-0.015233684 -0.022054289 -0.007136212 -0.06844255 -0.10965131 0.057952654 0.06388237 -0.021750983
0.07366825 0.05846607 0.037238546 0.063013 0.0044316296 0.022090696 0.029651191 0.046325162
0.10326107 -0.004484693 0.017022884 -0.06252361 -0.07123707 0.055200398 0.036392566 0.060175218
0.060497977 0.057732493 -0.05406141 -0.11003575 0.032476015 -0.10166395 0.0419116 0.03860145
0.031086298 0.10429098 -0.019995587 -0.09985074 -0.15010725 -0.04684468 0.05529415 0.013946377
0.05756305 0.05147182 -0.027435957 -0.0035468792 0.055898264 0.042465053 0.05979569 -0.049490225
0.101034924 -0.037995405 0.031393908 0.013047005 -0.087458715 0.0011533631 0.018372668 -0.009229696
-0.08164939 0.045212485 -0.111194864 0.010560516 -0.094565876 0.004294167 0.010277384 0.021668665
-0.10043663 0.08926528 0.040151373 -0.09506781 -0.064923905 -0.027345898 -0.021662794 -0.06743752
0.042362276 -0.05053002 -0.078648515 0.03933241 0.04807142 0.08628154 -0.086879686 -0.074380994
0.10683753 -0.021148156 -0.10333439 -0.06841478 -0.049842816 -0.06457256 0.06321688 -0.033818856
0.029145213 0.07787278 -0.04274487 -0.041733187 -0.08884354 -0.10600313 -0.11087309 0.047363013
-0.07015288 0.103184424 -0.02739287 0.012772912 -0.06811851 -0.11259705 -0.011451765 0.010481288
0.12769721 -0.028710987 -0.113995165 0.11311426 0.039207213 0.044142947 -0.07793915 -0.017124152
0.07904477 0.13030991 -0.035415046 -0.11412833 -0.12765001 -0.12019103 -0.018988442 -0.060662746
0.027496697 0.033801753 0.01813246 0.05618877 0.038252298 -0.008048472 0.0054704533 -0.09255756
-0.013035983 0.006614327 -0.10478131 -0.10589916 -0.11220023 -0.053143233 0.06731386 -0.064396314
0.044511054 0.0015112074 0.031336833 0.0073325294 0.058309656 -0.03121198 -0.025736777 -0.07735621
0.030286655 0.09902613 0.022512969 -0.08953007 -0.039964598 0.0665842 0.017281529 0.02140922

encoder.rnn.bias_ih_l1 f4 [128]
00000000: 455e d13d 3dab 7dbd d460 cd3d 45cf de3c
00000010: 914e acbc 248c aa3d 0d4a f23d 004d cc3d
00000020: fa0f 2dbd 86e5 113e 7b31 473d 65d0 3b3e
00000030: 7394 dabb a578 d93d 9cde 1e3d 3686 b6bc
00000040: b94d 563d 24e5 663d 1439 663d d883 543d
00000050: b176 a33d 7726 5dbd 46d2 9c3c 3d91 d03b
00000060: 861c 8c3d 5cc4 623d 6614 0dbd 259e be3b
00000070: 27c8 3e3d 2e00 86bc 278b e2bc 7aa2 f73d
00000080: c053 b7bc b2ed 8a3d faea 543d 19f1 c13d
00000090: 2424 5f3d 5a42 973d 2c6c 443d b23b ba3d
000000a0: 51c8 4a3d 1ad7 b03b 7ad7 1d3d 9d8a fe3d
000000b0: ddb9 cf3d 8a55 a43d f016 c03d a6f9 b5ba
000000c0: 279b 0dbd a631 67bd 39b3 34bc 9367 053d
000000d0: 6ee9 d73d abea 313d 974b 213d 278a 39bd
000000e0: 85e2 643c 172d 38bd 8356 153d 22ca d03d
000000f0: 7748 9b3d 76fa 9a3d 0ba6 47bc 7491 e13d
00000100: 4c37 7aba cbb8 8e3d a5c1 b8bd 5eca 12bd
00000110: 97a8 8ebc c2f4 9dbb bee4 9dbd 4819 54bd
00000120: 4e56 a4bd a546 2abd 383a 13bc 0fc3 d9bd
00000130: bad4 8dbd c3de 4f3d d708 6f3d dde4 82bd
00000140: 9e85 30bc 5bb9 10bd f5e4 fabc 34cb a43d
00000150: 5e4e 243d 2d85 8d3d 4018 eabc 25db c33c
00000160: f740 303d 6107 233d 7659 54bd 0968 3a3c
00000170: fced 9ebd a758 843d fabf 0fbd d6de ee3c
00000180: 398b 413d 8ef9 ae3d 19df a53d a612 38bc
00000190: e193 2dba 9626 b93c 89e4 cc3d 18b0 03bd
000001a0: 8aab 013b 04ce 0a3e 47e0 8bbc dec5 0f3e
000001b0: c204 783b 545b c43d 0bc0 283d a8b8 163d
000001c0: e67c e4bc 4701 4d3d 0591 15bd ed38 b93d
000001d0: b0ec b53c 3323 ba3d eec6 ca3d 6df6 afbc
000001e0: 2c2c ed3d 9bf9 393a e98d a9bb 3bb8 463d
000001f0: e763 01bb ff04 32bc eed8 e23d 4216 ae3d
0.102230586 -0.061930884 0.10028234 0.027198443 -0.021033557 0.08327511 0.1183053 0.09975624
-0.042251565 0.14247712 0.048631173 0.18341215 -0.0066705286 0.10618714 0.038786516 -0.022280794
0.052320216 0.05637087 0.056206778 0.05188355 0.07981623 -0.05399176 0.019143235 0.00636497
0.06841378 0.055363044 -0.03444328 0.005817192 0.0465776 -0.016357508 -0.027654244 0.12091537
-0.022378802 0.06783618 0.051981904 0.09469814 0.054477826 0.073857024 0.047954723 0.09093417
0.049507443 0.005396736 0.038535573 0.12428782 0.101428725 0.08024128 0.09379375 -0.0013883605
-0.034571793 -0.056443833 -0.011029058 0.03256948 0.1054257 0.043436687 0.03937873 -0.045297768
0.013970022 -0.044964876 0.036459457 0.10194804 0.07582181 0.07567303 -0.012185584 0.11014071
-0.0009544983 0.0696884 -0.0902131 -0.035837524 -0.017414374 -0.004820437 -0.07709645 -0.051781923
-0.08024274 -0.041571278 -0.008986048 -0.106329076 -0.0692534 0.05074955 0.05835804 -0.063913085
-0.010774044 -0.03533302 -0.030626753 0.080465704 0.0401138 0.06910167 -0.028576016 0.023908207
0.043030705 0.03980196 -0.05184313 0.011377343 -0.07760236 0.064622216 -0.035095192 0.02915899
0.047251914 0.085436925 0.08099193 -0.011234915 -0.0006621462 0.022601407 0.10004527 -0.032150358
0.0019786083 0.13555151 -0.017074717 0.14040324 0.0037844633 0.09587732 0.04119877 0.036797196
-0.027891587 0.050050046 -0.036515255 0.09044061 0.022207588 0.09088745 0.09901224 -0.02147981
0.11580691 0.0007094384 -0.0051743877 0.04851554 -0.0019743384 -0.010865449 0.11076532 0.08500339

encoder.rnn.bias_hh_l1 f4 [128]
00000000: 4225 893c e304 0ebd 3a33 8a3d ef7a 8a3d
00000010: 741b 183d 2815 403d 9dbd 1a3d 874a dbbc
00000020: 645a 42bd 3de5 f43d 6cd3 483d cc6f 173e
00000030: 6304 a33d 3ab0 653c dce0 8c3d fd82 523b
00000040: 6413 e8ba 76c9 adbc ed9f ce3c c831 e03b
00000050: 0b39 1c3e 12e4 ba3d 609f 013d 2f97 a53c
00000060: f73d 6f3d a389 883c 48f0 b63c c1ca 693d
00000070: 9f15 f43b f3e0 90bc d46a 583d 4f96 853c
00000080: 4245 dbbc 70a0 82bc 5765 9739 8ec8 acbc
00000090: 0d23 cb3d 224e b7bc 7a41 83bc 3e07 a73d
000000a0: df3f 843d c101 b03d 3bcf b33d 2dbc 053d
000000b0: 7f31 043e 2760 a93c 23a9 9fbc 1dfb 8cbd
000000c0: 308b b43d 0764 cbba 90b6 6bbc 250f 9f3d
000000d0: 53f2 7cbc 3e68 9ebc 1f7c 7a3d 5658 a8b9
000000e0: 579a 7a3b 3b49 193d d4e9 913c 6420 0a3d
000000f0: d956 cd3d 0d3c 863b 2358 1a3d c4a2 0f3d
00000100: fb7a be3c 62f2 4bbd d631 7d3d 8ffb 04bc
00000110: c330 7ebc 2c51 8bbd f36c bf3c 059a f2bc
00000120: 5ec2 a1bd a0d6 12bc fb36 33bd 3d76 31bd
00000130: 92ff c13c 0d8d 80bd 58f2 423d 83f7 1ebd
00000140: f007 183b 4e37 943d ed3b b7bd beb8 1abd
00000150: 29a4 8bbc 6d24 6a3d 3ed2 103c 34dc 2ebd
00000160: f1f4 903c 5f87 cb3d 8277 6dbd da82 28bc
00000170: c967 11bd 4931 adbd 439e da3c c1a2 1d3d
00000180: b098 c53d 0567 bcbc d93b ac3d 7217 313b
00000190: 119d e43d b885 e73d 2aa8 80bc 9ec4 db3d
000001a0: 08b9 e33b 9721 0e3d 41e5 cd3d 03a2 193e
000001b0: 0d77 cb3a bff9 753b f4dd 23bd cea8 f23c
000001c0: 158c 833d e768 cb3d b89e bf3d 291d 883d
000001d0: 7ec3 d73d 3a1f beb9 13b7 b53c 3c23 65bc
000001e0: 2b32 343b ce85 023d f3ed 3ebc b147 973c
000001f0: e00a a8bb e82e 383d af03 103d b834 293d
0.016741399 -0.03467263 0.06748052 0.06761729 0.037135556 0.046895176 0.037778486 -0.026768936
-0.047449484 0.11957786 0.049029753 0.14788741 0.07959821 0.0140190665 0.06878826 0.0032121532
-0.0017705974 -0.021214228 0.025222743 0.006841872 0.15256135 0.09125532 0.031646132 0.020213692
0.058408704 0.016667193 0.022331372 0.057078127 0.0074488665 -0.01768539 0.052836254 0.016307024
-0.026766423 -0.015945643 0.00028876468 -0.021091726 0.09918795 -0.022376124 -0.016022433 0.08155678
0.06457495 0.085940845 0.087797605 0.03265016 0.12909506 0.020675732 -0.01948983 -0.068838336
0.088156104 -0.0015517481 -0.014386788 0.077665605 -0.015438634 -0.019336816 0.061153527 -0.00032109272
0.0038238966 0.037423354 0.017811693 0.033722296 0.100263305 0.004096514 0.03768171 0.035067335
0.023252001 -0.0497917 0.061815105 -0.008116617 -0.015514555 -0.06802592 0.02336738 -0.029614458
-0.07898401 -0.008962303 -0.043753605 -0.04332565 0.023681436 -0.06276903 0.0475944 -0.038810264
0.002319809 0.07237111 -0.08946977 -0.03777384 -0.017046051 0.057163645 0.008839188 -0.04269047
0.017694922 0.09937929 -0.0579753 -0.010285104 -0.035499368 -0.08456666 0.026686793 0.038485292
0.096482635 -0.022998342 0.084098525 0.002702203 0.111627705 0.11304802 -0.015705187 0.10730861
0.0069495477 0.034700003 0.10053492 0.15003209 0.0015523151 0.0037532893 -0.040006593 0.029621508
0.06423203 0.09932118 0.09356445 0.06646187 0.10535334 -0.0003626289 0.022182023 -0.013985451
0.0027495723 0.031865887 -0.011653411 0.018466802 -0.0051282495 0.04496661 0.035159763 0.041310042

encoder.rnn.weight_ih_l2 f4 [128, 32]
00000000: 6836 3cbd 6c93 613d 6161 76bd 9095 213d
00000010: 8ee2 f9bb 3374 d2bd 71e7 ddbd ba5e c839
00000020: 26e0 a23d 797b 0e3d 35b3 0fbd 42bf 7c3d
00000030: fe8a c43c fc8d 51bd 531a ecbb 7c1b 253d
00000040: f8a1 a23c 6103 2a3d 941c 3fbd 4bf3 10ba
00000050: 030a 9f3c a67c 00bb b2bd ffbc 1db5 e5bd
00000060: af6b 063e 4965 713d c674 66bd 65cf fc3c
00000070: e181 f9bc 499b b5bc 5a43 083d cc58 083d
00000080: 6a8c 68bd 1679 e5bc 2e4e e8bb 7ee7 f73c
00000090: e558 adbc 5c50 25bd 7f64 00be 48e2 6d3d
000000a0: d5cd 5d3d a691 073e 802c a93c 3bab b93d
000000b0: 4a8c b03c 48ea bbbd 6831 4f3d bb1c 34bd
000000c0: 07ce 563d 2974 0a3e 4013 ebbc 0e5d ec3d
000000d0: c4ac cc3d e51d 493c 7767 a1bc 79dc 04be
000000e0: b3f8 863c 6823 92bc f3bc 48bd ea8d 9cbd
000000f0: 6573 92bd e872 c1bc bbcc 05bc 01c4 b6bd
00000100: 6645 ddbd 0675 82bd a2b7 e4bc 6240 15bd
00000110: a17f a7bd 3df3 4bbd cada d1bd 780f 993d
00000120: 438d 673c 7a36 6d3d 7df6 96bd 0d63 743d
00000130: 632b 2ebd a75c a2bd 9aa4 543d 3143 a63d
00000140: 6861 493c d649 0b3e c393 b5bd c2af 583d
00000150: a81d 863d 73ff d33d e002 63bd df68 40bd
00000160: 0639 093e 5ec9 1f3d 0621 dfbc 3669 d5bd
00000170: 1818 c33c 35c5 c43c c1a1 a53d 8302 103d
00000180: 7f62 6eba 9e00 1f3d a30a 7bbd 4a42 533d
00000190: a025 c9bc f395 8cbd 1d90 303c 72db ff3d
000001a0: 0f78 81bd 49b3 5e3d 4ccb 743b 622a 0f3c
000001b0: 09d5 a73d d3df a3bd 8519 813c 4ce4 c03d
000001c0: 49ca 023e 28de 4b3d 7cd1 04bd d357 b1bb
000001d0: 1fdc 273c d38a ae3d 776a 01bc 87a4 b0bd
000001e0: 5f9e 313d c926 fb3c a5c2 313c 302f d13c
000001f0: 0035 d1bc 09bc b7bc f492 e63d b2cb 79bd
00000200: 1bb1 b4bd d9d5 d9bc 3bf4 63bc 1a4e 6a3d
00000210: f0fc 3dbd 276f 28bd d32e 4ebd 26bd 033d
00000220: 174e 2abc 8c2e d63d d629 debd 9cfc f6bc
00000230: bdcc bcbb c6b9 cebd 93b9 903c e337 bdbb
00000240: 1373 e83c 2de3 913d 52a5 0bbe 4a2d 873c
00000250: 985d c73d f241 103c b1b3 c2bd ac66 323c
00000260: 3278 1a3e 8326 33ba 3936 2a3d ca1c 8ebc
00000270: 2443 87bc dd42 953c 113d c43d 2a34 6cbd
00000280: 4caf f4bd ce34 6ebc bae1 b2bc e624 383d
00000290: eaf4 49bd 7a6d 18be a2c3 c0bc ec50 2c3d
000002a0: a639 12bd 1338 cf3c 9755 febd 0c92 783c
000002b0: d4a9 18bd 72b5 16bc a200 f5bb 1d97 e3bc
000002c0: 7164 ac3d 6d35 e43d cfc9 abbc 96fc a13d
000002d0: 82fa 113e cb85 903c 1211 aabd af19 a3bd
000002e0: b934 1b3d 4cfe 36bc d1fd 05bd b64e 9ebb
000002f0: bbdb 773d 4544 90bc 3322 06bc f4e9 0c3c
00000300: 6b37 61bd 312f 2abd 196c 38bc 7fc4 3c3d
00000310: bf6a 83bd d916 a3bd d581 e4bc 9a4f 7abc
00000320: 9e55 a43c e8f4 203d cbce 39bd 7dfd af3d
00000330: ae42 8a3d 722f bfbd b936 b8bd 8eb0 b43d
00000340: cfa0 dd3b 9dd3 e63d 0d78 04be 4d47 593d
00000350: 6f91 e33d 638d 963d 8550 c9bc d6da 90bc
00000360: 640c c53c 1103 0e3c d33b 893d dc60 dfbb
00000370: c8cc 80bd bbdd 80bd 0747 d13d b0b1 70bd
00000380: d19c 5cbd 52ec babd 1809 8bbc 3092 a33c
00000390: 93b3 d4bd df17 02be 2adf 8dbb 86d9 90b9
000003a0: 4d93 943d 6e07 223d 4c47 c6bb bbf3 e33d
000003b0: 4ce0 123d bc32 23bd a7f8 0a3d d488 a73d
000003c0: 9b25 a93c b8eb e93d abf4 0fbe 3467 fd3d
000003d0: ad9e 873d 8bd0 ff3d 11df a8bd 6a68 b0bd
000003e0: a7fd 063e be3b 093c df43 603d a54c 593c
000003f0: 0aff 14bd 7263 80bd ebe3 b43d 5c89 55bd
-0.045950323 0.055072233 -0.06015146 0.039449275 -0.0076258844 -0.102760695 -0.108351596 0.0003821755
0.07952909 0.03478572 -0.035083015 0.061705835 0.023992058 -0.051160797 -0.0072052865 0.040309414
0.019852623 0.04150713 -0.046658114 -0.00055294175 0.019413954 -0.0019605546 -0.031218383 -0.11216185
0.13127016 0.058934484 -0.056263708 0.030860612 -0.030457439 -0.022168772 0.033267356 0.03328781
-0.056774534 -0.02801184 -0.007089398 0.030261751 -0.021160552 -0.04035984 -0.12538336 0.058077127
0.054151375 0.13239154 0.020651102 0.09065863 0.02155127 -0.09175545 0.050584227 -0.043972712
0.052442577 0.13520874 -0.028695703 0.11541186 0.0999389 0.012275194 -0.019702656 -0.12974729
0.01647601 -0.017839149 -0.04900832 -0.076442555 -0.07150916 -0.023614362 -0.008166487 -0.089241035
-0.10804252 -0.06369977 -0.027919594 -0.036438353 -0.0817864 -0.049792517 -0.10246809 0.074736536
0.0141328005 0.05791328 -0.07371233 0.059664775 -0.042521846 -0.07927828 0.05191479 0.081182845
0.01229129 0.13602385 -0.08866074 0.05290199 0.06548625 0.103514574 -0.055422664 -0.046975013
0.13400659 0.039010398 -0.027237426 -0.10420458 0.0238152 0.024019817 0.08087493 0.035158645
-0.00090936566 0.038818948 -0.06128944 0.05157689 -0.024554074 -0.06864538 0.010776547 0.12493028
-0.063217275 0.0543702 0.003735262 0.008738132 0.0819493 -0.080016755 0.015759239 0.09418544
0.12772478 0.04977241 -0.032426342 -0.005412081 0.010245352 0.08522572 -0.007898918 -0.08625131
0.043363925 0.030658143 0.0108496295 0.025535196 -0.025537968 -0.02242853 0.11258498 -0.060985275
-0.08822843 -0.026591228 -0.01391321 0.05720339 -0.046383798 -0.041121628 -0.050337624 0.032162808
-0.010394595 0.10458097 -0.10847823 -0.03014975 -0.0057617114 -0.10094027 0.017666614 -0.0057744845
0.028375184 0.071234085 -0.13637283 0.016501088 0.097346485 0.008804785 -0.0950693 0.010888737
0.15084913 -0.0006834047 0.041555617 -0.017347712 -0.016511507 0.01822036 0.0958196 -0.057666935
-0.11947498 -0.014538957 -0.02183615 0.044957064 -0.049305834 -0.14885512 -0.023530785 0.04206936
-0.03569951 0.025295293 -0.12418669 0.015171539 -0.037271336 -0.009198533 -0.007476882 -0.027782017
0.08417595 0.11143003 -0.020970253 0.07909505 0.14255717 0.017641922 -0.08304037 -0.07963883
0.037892077 -0.011169028 -0.03271276 -0.0048311604 0.060512286 -0.017610678 -0.008186865 0.008600701
-0.05498449 -0.04154891 -0.011256241 0.04608583 -0.064168446 -0.07963342 -0.02789394 -0.015277768
0.020060357 0.03929606 -0.04536323 0.08593271 0.067509994 -0.09335221 -0.089948125 0.08822738
0.0067635546 0.11270831 -0.1293642 0.053046513 0.11111724 0.07351186 -0.024574528 -0.017682474
0.02405376 0.008667723 0.06700864 -0.0068169665 -0.06289059 -0.06292292 0.102186255 -0.058763206
-0.05386049 -0.09127106 -0.01697211 0.019967169 -0.103858136 -0.12704419 -0.0043295817 -0.00027627888
0.07254658 0.039557867 -0.0060509797 0.11130472 0.035858437 -0.039843306 0.03392854 0.08180395
0.020647814 0.11421913 -0.14058177 0.123732 0.06622062 0.12490948 -0.082456715 -0.086136654
0.13182698 0.00837606 0.054752227 0.013262902 -0.036376037 -0.06268968 0.088325344 -0.05213295
